{"format": "graph-model", "generatedBy": "2.18.0", "convertedBy": "TensorFlow.js Converter v4.22.0", "signature": {"inputs": {"input_layer": {"name": "input_layer:0", "dtype": "DT_FLOAT", "tensorShape": {"dim": [{"size": "-1"}, {"size": "128"}, {"size": "128"}, {"size": "3"}]}}}, "outputs": {"output_0": {"name": "Identity:0", "dtype": "DT_FLOAT", "tensorShape": {"dim": [{"size": "-1"}, {"size": "5"}]}}}}, "modelTopology": {"node": [{"name": "StatefulPartitionedCall/optimized_gesture_model_exp7_1/mobilenetv2_1.00_128_1/block_15_project_BN_1/batchnorm/sub", "op": "Const", "attr": {"value": {"tensor": {"dtype": "DT_FLOAT", "tensorShape": {"dim": [{"size": "160"}]}}}, "dtype": {"type": "DT_FLOAT"}}}, {"name": "StatefulPartitionedCall/optimized_gesture_model_exp7_1/mobilenetv2_1.00_128_1/block_14_project_BN_1/batchnorm/sub", "op": "Const", "attr": {"value": {"tensor": {"dtype": "DT_FLOAT", "tensorShape": {"dim": [{"size": "160"}]}}}, "dtype": {"type": "DT_FLOAT"}}}, {"name": "StatefulPartitionedCall/optimized_gesture_model_exp7_1/mobilenetv2_1.00_128_1/block_12_project_BN_1/batchnorm/sub", "op": "Const", "attr": {"value": {"tensor": {"dtype": "DT_FLOAT", "tensorShape": {"dim": [{"size": "96"}]}}}, "dtype": {"type": "DT_FLOAT"}}}, {"name": "StatefulPartitionedCall/optimized_gesture_model_exp7_1/mobilenetv2_1.00_128_1/block_11_project_BN_1/batchnorm/sub", "op": "Const", "attr": {"value": {"tensor": {"dtype": "DT_FLOAT", "tensorShape": {"dim": [{"size": "96"}]}}}, "dtype": {"type": "DT_FLOAT"}}}, {"name": "StatefulPartitionedCall/optimized_gesture_model_exp7_1/mobilenetv2_1.00_128_1/block_9_project_BN_1/batchnorm/sub", "op": "Const", "attr": {"value": {"tensor": {"dtype": "DT_FLOAT", "tensorShape": {"dim": [{"size": "64"}]}}}, "dtype": {"type": "DT_FLOAT"}}}, {"name": "StatefulPartitionedCall/optimized_gesture_model_exp7_1/mobilenetv2_1.00_128_1/block_8_project_BN_1/batchnorm/sub", "op": "Const", "attr": {"value": {"tensor": {"dtype": "DT_FLOAT", "tensorShape": {"dim": [{"size": "64"}]}}}, "dtype": {"type": "DT_FLOAT"}}}, {"name": "StatefulPartitionedCall/optimized_gesture_model_exp7_1/mobilenetv2_1.00_128_1/block_7_project_BN_1/batchnorm/sub", "op": "Const", "attr": {"value": {"tensor": {"dtype": "DT_FLOAT", "tensorShape": {"dim": [{"size": "64"}]}}}, "dtype": {"type": "DT_FLOAT"}}}, {"name": "StatefulPartitionedCall/optimized_gesture_model_exp7_1/mobilenetv2_1.00_128_1/block_5_project_BN_1/batchnorm/sub", "op": "Const", "attr": {"value": {"tensor": {"dtype": "DT_FLOAT", "tensorShape": {"dim": [{"size": "32"}]}}}, "dtype": {"type": "DT_FLOAT"}}}, {"name": "StatefulPartitionedCall/optimized_gesture_model_exp7_1/mobilenetv2_1.00_128_1/block_4_project_BN_1/batchnorm/sub", "op": "Const", "attr": {"value": {"tensor": {"dtype": "DT_FLOAT", "tensorShape": {"dim": [{"size": "32"}]}}}, "dtype": {"type": "DT_FLOAT"}}}, {"name": "StatefulPartitionedCall/optimized_gesture_model_exp7_1/mobilenetv2_1.00_128_1/block_2_project_BN_1/batchnorm/sub", "op": "Const", "attr": {"value": {"tensor": {"dtype": "DT_FLOAT", "tensorShape": {"dim": [{"size": "24"}]}}}, "dtype": {"type": "DT_FLOAT"}}}, {"name": "StatefulPartitionedCall/optimized_gesture_model_exp7_1/mobilenetv2_1.00_128_1/Conv1_1/convolution/merged_input", "op": "Const", "attr": {"value": {"tensor": {"dtype": "DT_FLOAT", "tensorShape": {"dim": [{"size": "3"}, {"size": "3"}, {"size": "3"}, {"size": "32"}]}}}, "dtype": {"type": "DT_FLOAT"}}}, {"name": "StatefulPartitionedCall/optimized_gesture_model_exp7_1/mobilenetv2_1.00_128_1/bn_Conv1_1/batchnorm/sub", "op": "Const", "attr": {"value": {"tensor": {"dtype": "DT_FLOAT", "tensorShape": {"dim": [{"size": "32"}]}}}, "dtype": {"type": "DT_FLOAT"}}}, {"name": "StatefulPartitionedCall/optimized_gesture_model_exp7_1/mobilenetv2_1.00_128_1/expanded_conv_depthwise_1/depthwise/ReadVariableOp", "op": "Const", "attr": {"value": {"tensor": {"dtype": "DT_FLOAT", "tensorShape": {"dim": [{"size": "3"}, {"size": "3"}, {"size": "32"}, {"size": "1"}]}}}, "dtype": {"type": "DT_FLOAT"}}}, {"name": "StatefulPartitionedCall/optimized_gesture_model_exp7_1/mobilenetv2_1.00_128_1/expanded_conv_depthwise_BN_1/batchnorm/mul", "op": "Const", "attr": {"value": {"tensor": {"dtype": "DT_FLOAT", "tensorShape": {"dim": [{"size": "32"}]}}}, "dtype": {"type": "DT_FLOAT"}}}, {"name": "StatefulPartitionedCall/optimized_gesture_model_exp7_1/mobilenetv2_1.00_128_1/expanded_conv_depthwise_BN_1/batchnorm/sub", "op": "Const", "attr": {"value": {"tensor": {"dtype": "DT_FLOAT", "tensorShape": {"dim": [{"size": "32"}]}}}, "dtype": {"type": "DT_FLOAT"}}}, {"name": "StatefulPartitionedCall/optimized_gesture_model_exp7_1/mobilenetv2_1.00_128_1/expanded_conv_project_1/convolution/merged_input", "op": "Const", "attr": {"value": {"tensor": {"dtype": "DT_FLOAT", "tensorShape": {"dim": [{"size": "1"}, {"size": "1"}, {"size": "32"}, {"size": "16"}]}}}, "dtype": {"type": "DT_FLOAT"}}}, {"name": "StatefulPartitionedCall/optimized_gesture_model_exp7_1/mobilenetv2_1.00_128_1/expanded_conv_project_BN_1/batchnorm/sub", "op": "Const", "attr": {"value": {"tensor": {"dtype": "DT_FLOAT", "tensorShape": {"dim": [{"size": "16"}]}}}, "dtype": {"type": "DT_FLOAT"}}}, {"name": "StatefulPartitionedCall/optimized_gesture_model_exp7_1/mobilenetv2_1.00_128_1/block_1_expand_1/convolution/merged_input", "op": "Const", "attr": {"value": {"tensor": {"dtype": "DT_FLOAT", "tensorShape": {"dim": [{"size": "1"}, {"size": "1"}, {"size": "16"}, {"size": "96"}]}}}, "dtype": {"type": "DT_FLOAT"}}}, {"name": "StatefulPartitionedCall/optimized_gesture_model_exp7_1/mobilenetv2_1.00_128_1/block_1_expand_BN_1/batchnorm/sub", "op": "Const", "attr": {"value": {"tensor": {"dtype": "DT_FLOAT", "tensorShape": {"dim": [{"size": "96"}]}}}, "dtype": {"type": "DT_FLOAT"}}}, {"name": "StatefulPartitionedCall/optimized_gesture_model_exp7_1/mobilenetv2_1.00_128_1/block_1_pad_1/Const", "op": "Const", "attr": {"value": {"tensor": {"dtype": "DT_INT32", "tensorShape": {"dim": [{"size": "4"}, {"size": "2"}]}}}, "dtype": {"type": "DT_INT32"}}}, {"name": "StatefulPartitionedCall/optimized_gesture_model_exp7_1/mobilenetv2_1.00_128_1/block_1_depthwise_1/depthwise/ReadVariableOp", "op": "Const", "attr": {"value": {"tensor": {"dtype": "DT_FLOAT", "tensorShape": {"dim": [{"size": "3"}, {"size": "3"}, {"size": "96"}, {"size": "1"}]}}}, "dtype": {"type": "DT_FLOAT"}}}, {"name": "StatefulPartitionedCall/optimized_gesture_model_exp7_1/mobilenetv2_1.00_128_1/block_1_depthwise_BN_1/batchnorm/mul", "op": "Const", "attr": {"value": {"tensor": {"dtype": "DT_FLOAT", "tensorShape": {"dim": [{"size": "96"}]}}}, "dtype": {"type": "DT_FLOAT"}}}, {"name": "StatefulPartitionedCall/optimized_gesture_model_exp7_1/mobilenetv2_1.00_128_1/block_1_depthwise_BN_1/batchnorm/sub", "op": "Const", "attr": {"value": {"tensor": {"dtype": "DT_FLOAT", "tensorShape": {"dim": [{"size": "96"}]}}}, "dtype": {"type": "DT_FLOAT"}}}, {"name": "StatefulPartitionedCall/optimized_gesture_model_exp7_1/mobilenetv2_1.00_128_1/block_1_project_1/convolution/merged_input", "op": "Const", "attr": {"value": {"tensor": {"dtype": "DT_FLOAT", "tensorShape": {"dim": [{"size": "1"}, {"size": "1"}, {"size": "96"}, {"size": "24"}]}}}, "dtype": {"type": "DT_FLOAT"}}}, {"name": "StatefulPartitionedCall/optimized_gesture_model_exp7_1/mobilenetv2_1.00_128_1/block_1_project_BN_1/batchnorm/sub", "op": "Const", "attr": {"value": {"tensor": {"dtype": "DT_FLOAT", "tensorShape": {"dim": [{"size": "24"}]}}}, "dtype": {"type": "DT_FLOAT"}}}, {"name": "StatefulPartitionedCall/optimized_gesture_model_exp7_1/mobilenetv2_1.00_128_1/block_2_expand_1/convolution/merged_input", "op": "Const", "attr": {"value": {"tensor": {"dtype": "DT_FLOAT", "tensorShape": {"dim": [{"size": "1"}, {"size": "1"}, {"size": "24"}, {"size": "144"}]}}}, "dtype": {"type": "DT_FLOAT"}}}, {"name": "StatefulPartitionedCall/optimized_gesture_model_exp7_1/mobilenetv2_1.00_128_1/block_2_expand_BN_1/batchnorm/sub", "op": "Const", "attr": {"value": {"tensor": {"dtype": "DT_FLOAT", "tensorShape": {"dim": [{"size": "144"}]}}}, "dtype": {"type": "DT_FLOAT"}}}, {"name": "StatefulPartitionedCall/optimized_gesture_model_exp7_1/mobilenetv2_1.00_128_1/block_2_depthwise_1/depthwise/ReadVariableOp", "op": "Const", "attr": {"value": {"tensor": {"dtype": "DT_FLOAT", "tensorShape": {"dim": [{"size": "3"}, {"size": "3"}, {"size": "144"}, {"size": "1"}]}}}, "dtype": {"type": "DT_FLOAT"}}}, {"name": "StatefulPartitionedCall/optimized_gesture_model_exp7_1/mobilenetv2_1.00_128_1/block_2_depthwise_BN_1/batchnorm/mul", "op": "Const", "attr": {"value": {"tensor": {"dtype": "DT_FLOAT", "tensorShape": {"dim": [{"size": "144"}]}}}, "dtype": {"type": "DT_FLOAT"}}}, {"name": "StatefulPartitionedCall/optimized_gesture_model_exp7_1/mobilenetv2_1.00_128_1/block_2_depthwise_BN_1/batchnorm/sub", "op": "Const", "attr": {"value": {"tensor": {"dtype": "DT_FLOAT", "tensorShape": {"dim": [{"size": "144"}]}}}, "dtype": {"type": "DT_FLOAT"}}}, {"name": "StatefulPartitionedCall/optimized_gesture_model_exp7_1/mobilenetv2_1.00_128_1/block_2_project_1/convolution/merged_input", "op": "Const", "attr": {"value": {"tensor": {"dtype": "DT_FLOAT", "tensorShape": {"dim": [{"size": "1"}, {"size": "1"}, {"size": "144"}, {"size": "24"}]}}}, "dtype": {"type": "DT_FLOAT"}}}, {"name": "StatefulPartitionedCall/optimized_gesture_model_exp7_1/mobilenetv2_1.00_128_1/block_3_expand_1/convolution/merged_input", "op": "Const", "attr": {"value": {"tensor": {"dtype": "DT_FLOAT", "tensorShape": {"dim": [{"size": "1"}, {"size": "1"}, {"size": "24"}, {"size": "144"}]}}}, "dtype": {"type": "DT_FLOAT"}}}, {"name": "StatefulPartitionedCall/optimized_gesture_model_exp7_1/mobilenetv2_1.00_128_1/block_3_expand_BN_1/batchnorm/sub", "op": "Const", "attr": {"value": {"tensor": {"dtype": "DT_FLOAT", "tensorShape": {"dim": [{"size": "144"}]}}}, "dtype": {"type": "DT_FLOAT"}}}, {"name": "StatefulPartitionedCall/optimized_gesture_model_exp7_1/mobilenetv2_1.00_128_1/block_3_pad_1/Const", "op": "Const", "attr": {"value": {"tensor": {"dtype": "DT_INT32", "tensorShape": {"dim": [{"size": "4"}, {"size": "2"}]}}}, "dtype": {"type": "DT_INT32"}}}, {"name": "StatefulPartitionedCall/optimized_gesture_model_exp7_1/mobilenetv2_1.00_128_1/block_3_depthwise_1/depthwise/ReadVariableOp", "op": "Const", "attr": {"value": {"tensor": {"dtype": "DT_FLOAT", "tensorShape": {"dim": [{"size": "3"}, {"size": "3"}, {"size": "144"}, {"size": "1"}]}}}, "dtype": {"type": "DT_FLOAT"}}}, {"name": "StatefulPartitionedCall/optimized_gesture_model_exp7_1/mobilenetv2_1.00_128_1/block_3_depthwise_BN_1/batchnorm/mul", "op": "Const", "attr": {"value": {"tensor": {"dtype": "DT_FLOAT", "tensorShape": {"dim": [{"size": "144"}]}}}, "dtype": {"type": "DT_FLOAT"}}}, {"name": "StatefulPartitionedCall/optimized_gesture_model_exp7_1/mobilenetv2_1.00_128_1/block_3_depthwise_BN_1/batchnorm/sub", "op": "Const", "attr": {"value": {"tensor": {"dtype": "DT_FLOAT", "tensorShape": {"dim": [{"size": "144"}]}}}, "dtype": {"type": "DT_FLOAT"}}}, {"name": "StatefulPartitionedCall/optimized_gesture_model_exp7_1/mobilenetv2_1.00_128_1/block_3_project_1/convolution/merged_input", "op": "Const", "attr": {"value": {"tensor": {"dtype": "DT_FLOAT", "tensorShape": {"dim": [{"size": "1"}, {"size": "1"}, {"size": "144"}, {"size": "32"}]}}}, "dtype": {"type": "DT_FLOAT"}}}, {"name": "StatefulPartitionedCall/optimized_gesture_model_exp7_1/mobilenetv2_1.00_128_1/block_3_project_BN_1/batchnorm/sub", "op": "Const", "attr": {"value": {"tensor": {"dtype": "DT_FLOAT", "tensorShape": {"dim": [{"size": "32"}]}}}, "dtype": {"type": "DT_FLOAT"}}}, {"name": "StatefulPartitionedCall/optimized_gesture_model_exp7_1/mobilenetv2_1.00_128_1/block_4_expand_1/convolution/merged_input", "op": "Const", "attr": {"value": {"tensor": {"dtype": "DT_FLOAT", "tensorShape": {"dim": [{"size": "1"}, {"size": "1"}, {"size": "32"}, {"size": "192"}]}}}, "dtype": {"type": "DT_FLOAT"}}}, {"name": "StatefulPartitionedCall/optimized_gesture_model_exp7_1/mobilenetv2_1.00_128_1/block_4_expand_BN_1/batchnorm/sub", "op": "Const", "attr": {"value": {"tensor": {"dtype": "DT_FLOAT", "tensorShape": {"dim": [{"size": "192"}]}}}, "dtype": {"type": "DT_FLOAT"}}}, {"name": "StatefulPartitionedCall/optimized_gesture_model_exp7_1/mobilenetv2_1.00_128_1/block_4_depthwise_1/depthwise/ReadVariableOp", "op": "Const", "attr": {"value": {"tensor": {"dtype": "DT_FLOAT", "tensorShape": {"dim": [{"size": "3"}, {"size": "3"}, {"size": "192"}, {"size": "1"}]}}}, "dtype": {"type": "DT_FLOAT"}}}, {"name": "StatefulPartitionedCall/optimized_gesture_model_exp7_1/mobilenetv2_1.00_128_1/block_4_depthwise_BN_1/batchnorm/mul", "op": "Const", "attr": {"value": {"tensor": {"dtype": "DT_FLOAT", "tensorShape": {"dim": [{"size": "192"}]}}}, "dtype": {"type": "DT_FLOAT"}}}, {"name": "StatefulPartitionedCall/optimized_gesture_model_exp7_1/mobilenetv2_1.00_128_1/block_4_depthwise_BN_1/batchnorm/sub", "op": "Const", "attr": {"value": {"tensor": {"dtype": "DT_FLOAT", "tensorShape": {"dim": [{"size": "192"}]}}}, "dtype": {"type": "DT_FLOAT"}}}, {"name": "StatefulPartitionedCall/optimized_gesture_model_exp7_1/mobilenetv2_1.00_128_1/block_4_project_1/convolution/merged_input", "op": "Const", "attr": {"value": {"tensor": {"dtype": "DT_FLOAT", "tensorShape": {"dim": [{"size": "1"}, {"size": "1"}, {"size": "192"}, {"size": "32"}]}}}, "dtype": {"type": "DT_FLOAT"}}}, {"name": "StatefulPartitionedCall/optimized_gesture_model_exp7_1/mobilenetv2_1.00_128_1/block_5_expand_1/convolution/merged_input", "op": "Const", "attr": {"value": {"tensor": {"dtype": "DT_FLOAT", "tensorShape": {"dim": [{"size": "1"}, {"size": "1"}, {"size": "32"}, {"size": "192"}]}}}, "dtype": {"type": "DT_FLOAT"}}}, {"name": "StatefulPartitionedCall/optimized_gesture_model_exp7_1/mobilenetv2_1.00_128_1/block_5_expand_BN_1/batchnorm/sub", "op": "Const", "attr": {"value": {"tensor": {"dtype": "DT_FLOAT", "tensorShape": {"dim": [{"size": "192"}]}}}, "dtype": {"type": "DT_FLOAT"}}}, {"name": "StatefulPartitionedCall/optimized_gesture_model_exp7_1/mobilenetv2_1.00_128_1/block_5_depthwise_1/depthwise/ReadVariableOp", "op": "Const", "attr": {"value": {"tensor": {"dtype": "DT_FLOAT", "tensorShape": {"dim": [{"size": "3"}, {"size": "3"}, {"size": "192"}, {"size": "1"}]}}}, "dtype": {"type": "DT_FLOAT"}}}, {"name": "StatefulPartitionedCall/optimized_gesture_model_exp7_1/mobilenetv2_1.00_128_1/block_5_depthwise_BN_1/batchnorm/mul", "op": "Const", "attr": {"value": {"tensor": {"dtype": "DT_FLOAT", "tensorShape": {"dim": [{"size": "192"}]}}}, "dtype": {"type": "DT_FLOAT"}}}, {"name": "StatefulPartitionedCall/optimized_gesture_model_exp7_1/mobilenetv2_1.00_128_1/block_5_depthwise_BN_1/batchnorm/sub", "op": "Const", "attr": {"value": {"tensor": {"dtype": "DT_FLOAT", "tensorShape": {"dim": [{"size": "192"}]}}}, "dtype": {"type": "DT_FLOAT"}}}, {"name": "StatefulPartitionedCall/optimized_gesture_model_exp7_1/mobilenetv2_1.00_128_1/block_5_project_1/convolution/merged_input", "op": "Const", "attr": {"value": {"tensor": {"dtype": "DT_FLOAT", "tensorShape": {"dim": [{"size": "1"}, {"size": "1"}, {"size": "192"}, {"size": "32"}]}}}, "dtype": {"type": "DT_FLOAT"}}}, {"name": "StatefulPartitionedCall/optimized_gesture_model_exp7_1/mobilenetv2_1.00_128_1/block_6_expand_1/convolution/merged_input", "op": "Const", "attr": {"value": {"tensor": {"dtype": "DT_FLOAT", "tensorShape": {"dim": [{"size": "1"}, {"size": "1"}, {"size": "32"}, {"size": "192"}]}}}, "dtype": {"type": "DT_FLOAT"}}}, {"name": "StatefulPartitionedCall/optimized_gesture_model_exp7_1/mobilenetv2_1.00_128_1/block_6_expand_BN_1/batchnorm/sub", "op": "Const", "attr": {"value": {"tensor": {"dtype": "DT_FLOAT", "tensorShape": {"dim": [{"size": "192"}]}}}, "dtype": {"type": "DT_FLOAT"}}}, {"name": "StatefulPartitionedCall/optimized_gesture_model_exp7_1/mobilenetv2_1.00_128_1/block_6_pad_1/Const", "op": "Const", "attr": {"value": {"tensor": {"dtype": "DT_INT32", "tensorShape": {"dim": [{"size": "4"}, {"size": "2"}]}}}, "dtype": {"type": "DT_INT32"}}}, {"name": "StatefulPartitionedCall/optimized_gesture_model_exp7_1/mobilenetv2_1.00_128_1/block_6_depthwise_1/depthwise/ReadVariableOp", "op": "Const", "attr": {"value": {"tensor": {"dtype": "DT_FLOAT", "tensorShape": {"dim": [{"size": "3"}, {"size": "3"}, {"size": "192"}, {"size": "1"}]}}}, "dtype": {"type": "DT_FLOAT"}}}, {"name": "StatefulPartitionedCall/optimized_gesture_model_exp7_1/mobilenetv2_1.00_128_1/block_6_depthwise_BN_1/batchnorm/mul", "op": "Const", "attr": {"value": {"tensor": {"dtype": "DT_FLOAT", "tensorShape": {"dim": [{"size": "192"}]}}}, "dtype": {"type": "DT_FLOAT"}}}, {"name": "StatefulPartitionedCall/optimized_gesture_model_exp7_1/mobilenetv2_1.00_128_1/block_6_depthwise_BN_1/batchnorm/sub", "op": "Const", "attr": {"value": {"tensor": {"dtype": "DT_FLOAT", "tensorShape": {"dim": [{"size": "192"}]}}}, "dtype": {"type": "DT_FLOAT"}}}, {"name": "StatefulPartitionedCall/optimized_gesture_model_exp7_1/mobilenetv2_1.00_128_1/block_6_project_1/convolution/merged_input", "op": "Const", "attr": {"value": {"tensor": {"dtype": "DT_FLOAT", "tensorShape": {"dim": [{"size": "1"}, {"size": "1"}, {"size": "192"}, {"size": "64"}]}}}, "dtype": {"type": "DT_FLOAT"}}}, {"name": "StatefulPartitionedCall/optimized_gesture_model_exp7_1/mobilenetv2_1.00_128_1/block_6_project_BN_1/batchnorm/sub", "op": "Const", "attr": {"value": {"tensor": {"dtype": "DT_FLOAT", "tensorShape": {"dim": [{"size": "64"}]}}}, "dtype": {"type": "DT_FLOAT"}}}, {"name": "StatefulPartitionedCall/optimized_gesture_model_exp7_1/mobilenetv2_1.00_128_1/block_7_expand_1/convolution/merged_input", "op": "Const", "attr": {"value": {"tensor": {"dtype": "DT_FLOAT", "tensorShape": {"dim": [{"size": "1"}, {"size": "1"}, {"size": "64"}, {"size": "384"}]}}}, "dtype": {"type": "DT_FLOAT"}}}, {"name": "StatefulPartitionedCall/optimized_gesture_model_exp7_1/mobilenetv2_1.00_128_1/block_7_expand_BN_1/batchnorm/sub", "op": "Const", "attr": {"value": {"tensor": {"dtype": "DT_FLOAT", "tensorShape": {"dim": [{"size": "384"}]}}}, "dtype": {"type": "DT_FLOAT"}}}, {"name": "StatefulPartitionedCall/optimized_gesture_model_exp7_1/mobilenetv2_1.00_128_1/block_7_depthwise_1/depthwise/ReadVariableOp", "op": "Const", "attr": {"value": {"tensor": {"dtype": "DT_FLOAT", "tensorShape": {"dim": [{"size": "3"}, {"size": "3"}, {"size": "384"}, {"size": "1"}]}}}, "dtype": {"type": "DT_FLOAT"}}}, {"name": "StatefulPartitionedCall/optimized_gesture_model_exp7_1/mobilenetv2_1.00_128_1/block_7_depthwise_BN_1/batchnorm/mul", "op": "Const", "attr": {"value": {"tensor": {"dtype": "DT_FLOAT", "tensorShape": {"dim": [{"size": "384"}]}}}, "dtype": {"type": "DT_FLOAT"}}}, {"name": "StatefulPartitionedCall/optimized_gesture_model_exp7_1/mobilenetv2_1.00_128_1/block_7_depthwise_BN_1/batchnorm/sub", "op": "Const", "attr": {"value": {"tensor": {"dtype": "DT_FLOAT", "tensorShape": {"dim": [{"size": "384"}]}}}, "dtype": {"type": "DT_FLOAT"}}}, {"name": "StatefulPartitionedCall/optimized_gesture_model_exp7_1/mobilenetv2_1.00_128_1/block_7_project_1/convolution/merged_input", "op": "Const", "attr": {"value": {"tensor": {"dtype": "DT_FLOAT", "tensorShape": {"dim": [{"size": "1"}, {"size": "1"}, {"size": "384"}, {"size": "64"}]}}}, "dtype": {"type": "DT_FLOAT"}}}, {"name": "StatefulPartitionedCall/optimized_gesture_model_exp7_1/mobilenetv2_1.00_128_1/block_8_expand_1/convolution/merged_input", "op": "Const", "attr": {"value": {"tensor": {"dtype": "DT_FLOAT", "tensorShape": {"dim": [{"size": "1"}, {"size": "1"}, {"size": "64"}, {"size": "384"}]}}}, "dtype": {"type": "DT_FLOAT"}}}, {"name": "StatefulPartitionedCall/optimized_gesture_model_exp7_1/mobilenetv2_1.00_128_1/block_8_expand_BN_1/batchnorm/sub", "op": "Const", "attr": {"value": {"tensor": {"dtype": "DT_FLOAT", "tensorShape": {"dim": [{"size": "384"}]}}}, "dtype": {"type": "DT_FLOAT"}}}, {"name": "StatefulPartitionedCall/optimized_gesture_model_exp7_1/mobilenetv2_1.00_128_1/block_8_depthwise_1/depthwise/ReadVariableOp", "op": "Const", "attr": {"value": {"tensor": {"dtype": "DT_FLOAT", "tensorShape": {"dim": [{"size": "3"}, {"size": "3"}, {"size": "384"}, {"size": "1"}]}}}, "dtype": {"type": "DT_FLOAT"}}}, {"name": "StatefulPartitionedCall/optimized_gesture_model_exp7_1/mobilenetv2_1.00_128_1/block_8_depthwise_BN_1/batchnorm/mul", "op": "Const", "attr": {"value": {"tensor": {"dtype": "DT_FLOAT", "tensorShape": {"dim": [{"size": "384"}]}}}, "dtype": {"type": "DT_FLOAT"}}}, {"name": "StatefulPartitionedCall/optimized_gesture_model_exp7_1/mobilenetv2_1.00_128_1/block_8_depthwise_BN_1/batchnorm/sub", "op": "Const", "attr": {"value": {"tensor": {"dtype": "DT_FLOAT", "tensorShape": {"dim": [{"size": "384"}]}}}, "dtype": {"type": "DT_FLOAT"}}}, {"name": "StatefulPartitionedCall/optimized_gesture_model_exp7_1/mobilenetv2_1.00_128_1/block_8_project_1/convolution/merged_input", "op": "Const", "attr": {"value": {"tensor": {"dtype": "DT_FLOAT", "tensorShape": {"dim": [{"size": "1"}, {"size": "1"}, {"size": "384"}, {"size": "64"}]}}}, "dtype": {"type": "DT_FLOAT"}}}, {"name": "StatefulPartitionedCall/optimized_gesture_model_exp7_1/mobilenetv2_1.00_128_1/block_9_expand_1/convolution/merged_input", "op": "Const", "attr": {"value": {"tensor": {"dtype": "DT_FLOAT", "tensorShape": {"dim": [{"size": "1"}, {"size": "1"}, {"size": "64"}, {"size": "384"}]}}}, "dtype": {"type": "DT_FLOAT"}}}, {"name": "StatefulPartitionedCall/optimized_gesture_model_exp7_1/mobilenetv2_1.00_128_1/block_9_expand_BN_1/batchnorm/sub", "op": "Const", "attr": {"value": {"tensor": {"dtype": "DT_FLOAT", "tensorShape": {"dim": [{"size": "384"}]}}}, "dtype": {"type": "DT_FLOAT"}}}, {"name": "StatefulPartitionedCall/optimized_gesture_model_exp7_1/mobilenetv2_1.00_128_1/block_9_depthwise_1/depthwise/ReadVariableOp", "op": "Const", "attr": {"value": {"tensor": {"dtype": "DT_FLOAT", "tensorShape": {"dim": [{"size": "3"}, {"size": "3"}, {"size": "384"}, {"size": "1"}]}}}, "dtype": {"type": "DT_FLOAT"}}}, {"name": "StatefulPartitionedCall/optimized_gesture_model_exp7_1/mobilenetv2_1.00_128_1/block_9_depthwise_BN_1/batchnorm/mul", "op": "Const", "attr": {"value": {"tensor": {"dtype": "DT_FLOAT", "tensorShape": {"dim": [{"size": "384"}]}}}, "dtype": {"type": "DT_FLOAT"}}}, {"name": "StatefulPartitionedCall/optimized_gesture_model_exp7_1/mobilenetv2_1.00_128_1/block_9_depthwise_BN_1/batchnorm/sub", "op": "Const", "attr": {"value": {"tensor": {"dtype": "DT_FLOAT", "tensorShape": {"dim": [{"size": "384"}]}}}, "dtype": {"type": "DT_FLOAT"}}}, {"name": "StatefulPartitionedCall/optimized_gesture_model_exp7_1/mobilenetv2_1.00_128_1/block_9_project_1/convolution/merged_input", "op": "Const", "attr": {"value": {"tensor": {"dtype": "DT_FLOAT", "tensorShape": {"dim": [{"size": "1"}, {"size": "1"}, {"size": "384"}, {"size": "64"}]}}}, "dtype": {"type": "DT_FLOAT"}}}, {"name": "StatefulPartitionedCall/optimized_gesture_model_exp7_1/mobilenetv2_1.00_128_1/block_10_expand_1/convolution/merged_input", "op": "Const", "attr": {"value": {"tensor": {"dtype": "DT_FLOAT", "tensorShape": {"dim": [{"size": "1"}, {"size": "1"}, {"size": "64"}, {"size": "384"}]}}}, "dtype": {"type": "DT_FLOAT"}}}, {"name": "StatefulPartitionedCall/optimized_gesture_model_exp7_1/mobilenetv2_1.00_128_1/block_10_expand_BN_1/batchnorm/sub", "op": "Const", "attr": {"value": {"tensor": {"dtype": "DT_FLOAT", "tensorShape": {"dim": [{"size": "384"}]}}}, "dtype": {"type": "DT_FLOAT"}}}, {"name": "StatefulPartitionedCall/optimized_gesture_model_exp7_1/mobilenetv2_1.00_128_1/block_10_depthwise_1/depthwise/ReadVariableOp", "op": "Const", "attr": {"value": {"tensor": {"dtype": "DT_FLOAT", "tensorShape": {"dim": [{"size": "3"}, {"size": "3"}, {"size": "384"}, {"size": "1"}]}}}, "dtype": {"type": "DT_FLOAT"}}}, {"name": "StatefulPartitionedCall/optimized_gesture_model_exp7_1/mobilenetv2_1.00_128_1/block_10_depthwise_BN_1/batchnorm/mul", "op": "Const", "attr": {"value": {"tensor": {"dtype": "DT_FLOAT", "tensorShape": {"dim": [{"size": "384"}]}}}, "dtype": {"type": "DT_FLOAT"}}}, {"name": "StatefulPartitionedCall/optimized_gesture_model_exp7_1/mobilenetv2_1.00_128_1/block_10_depthwise_BN_1/batchnorm/sub", "op": "Const", "attr": {"value": {"tensor": {"dtype": "DT_FLOAT", "tensorShape": {"dim": [{"size": "384"}]}}}, "dtype": {"type": "DT_FLOAT"}}}, {"name": "StatefulPartitionedCall/optimized_gesture_model_exp7_1/mobilenetv2_1.00_128_1/block_10_project_1/convolution/merged_input", "op": "Const", "attr": {"value": {"tensor": {"dtype": "DT_FLOAT", "tensorShape": {"dim": [{"size": "1"}, {"size": "1"}, {"size": "384"}, {"size": "96"}]}}}, "dtype": {"type": "DT_FLOAT"}}}, {"name": "StatefulPartitionedCall/optimized_gesture_model_exp7_1/mobilenetv2_1.00_128_1/block_10_project_BN_1/batchnorm/sub", "op": "Const", "attr": {"value": {"tensor": {"dtype": "DT_FLOAT", "tensorShape": {"dim": [{"size": "96"}]}}}, "dtype": {"type": "DT_FLOAT"}}}, {"name": "StatefulPartitionedCall/optimized_gesture_model_exp7_1/mobilenetv2_1.00_128_1/block_11_expand_1/convolution/merged_input", "op": "Const", "attr": {"value": {"tensor": {"dtype": "DT_FLOAT", "tensorShape": {"dim": [{"size": "1"}, {"size": "1"}, {"size": "96"}, {"size": "576"}]}}}, "dtype": {"type": "DT_FLOAT"}}}, {"name": "StatefulPartitionedCall/optimized_gesture_model_exp7_1/mobilenetv2_1.00_128_1/block_11_expand_BN_1/batchnorm/sub", "op": "Const", "attr": {"value": {"tensor": {"dtype": "DT_FLOAT", "tensorShape": {"dim": [{"size": "576"}]}}}, "dtype": {"type": "DT_FLOAT"}}}, {"name": "StatefulPartitionedCall/optimized_gesture_model_exp7_1/mobilenetv2_1.00_128_1/block_11_depthwise_1/depthwise/ReadVariableOp", "op": "Const", "attr": {"value": {"tensor": {"dtype": "DT_FLOAT", "tensorShape": {"dim": [{"size": "3"}, {"size": "3"}, {"size": "576"}, {"size": "1"}]}}}, "dtype": {"type": "DT_FLOAT"}}}, {"name": "StatefulPartitionedCall/optimized_gesture_model_exp7_1/mobilenetv2_1.00_128_1/block_11_depthwise_BN_1/batchnorm/mul", "op": "Const", "attr": {"value": {"tensor": {"dtype": "DT_FLOAT", "tensorShape": {"dim": [{"size": "576"}]}}}, "dtype": {"type": "DT_FLOAT"}}}, {"name": "StatefulPartitionedCall/optimized_gesture_model_exp7_1/mobilenetv2_1.00_128_1/block_11_depthwise_BN_1/batchnorm/sub", "op": "Const", "attr": {"value": {"tensor": {"dtype": "DT_FLOAT", "tensorShape": {"dim": [{"size": "576"}]}}}, "dtype": {"type": "DT_FLOAT"}}}, {"name": "StatefulPartitionedCall/optimized_gesture_model_exp7_1/mobilenetv2_1.00_128_1/block_11_project_1/convolution/merged_input", "op": "Const", "attr": {"value": {"tensor": {"dtype": "DT_FLOAT", "tensorShape": {"dim": [{"size": "1"}, {"size": "1"}, {"size": "576"}, {"size": "96"}]}}}, "dtype": {"type": "DT_FLOAT"}}}, {"name": "StatefulPartitionedCall/optimized_gesture_model_exp7_1/mobilenetv2_1.00_128_1/block_12_expand_1/convolution/merged_input", "op": "Const", "attr": {"value": {"tensor": {"dtype": "DT_FLOAT", "tensorShape": {"dim": [{"size": "1"}, {"size": "1"}, {"size": "96"}, {"size": "576"}]}}}, "dtype": {"type": "DT_FLOAT"}}}, {"name": "StatefulPartitionedCall/optimized_gesture_model_exp7_1/mobilenetv2_1.00_128_1/block_12_expand_BN_1/batchnorm/sub", "op": "Const", "attr": {"value": {"tensor": {"dtype": "DT_FLOAT", "tensorShape": {"dim": [{"size": "576"}]}}}, "dtype": {"type": "DT_FLOAT"}}}, {"name": "StatefulPartitionedCall/optimized_gesture_model_exp7_1/mobilenetv2_1.00_128_1/block_12_depthwise_1/depthwise/ReadVariableOp", "op": "Const", "attr": {"value": {"tensor": {"dtype": "DT_FLOAT", "tensorShape": {"dim": [{"size": "3"}, {"size": "3"}, {"size": "576"}, {"size": "1"}]}}}, "dtype": {"type": "DT_FLOAT"}}}, {"name": "StatefulPartitionedCall/optimized_gesture_model_exp7_1/mobilenetv2_1.00_128_1/block_12_depthwise_BN_1/batchnorm/mul", "op": "Const", "attr": {"value": {"tensor": {"dtype": "DT_FLOAT", "tensorShape": {"dim": [{"size": "576"}]}}}, "dtype": {"type": "DT_FLOAT"}}}, {"name": "StatefulPartitionedCall/optimized_gesture_model_exp7_1/mobilenetv2_1.00_128_1/block_12_depthwise_BN_1/batchnorm/sub", "op": "Const", "attr": {"value": {"tensor": {"dtype": "DT_FLOAT", "tensorShape": {"dim": [{"size": "576"}]}}}, "dtype": {"type": "DT_FLOAT"}}}, {"name": "StatefulPartitionedCall/optimized_gesture_model_exp7_1/mobilenetv2_1.00_128_1/block_12_project_1/convolution/merged_input", "op": "Const", "attr": {"value": {"tensor": {"dtype": "DT_FLOAT", "tensorShape": {"dim": [{"size": "1"}, {"size": "1"}, {"size": "576"}, {"size": "96"}]}}}, "dtype": {"type": "DT_FLOAT"}}}, {"name": "StatefulPartitionedCall/optimized_gesture_model_exp7_1/mobilenetv2_1.00_128_1/block_13_expand_1/convolution/merged_input", "op": "Const", "attr": {"value": {"tensor": {"dtype": "DT_FLOAT", "tensorShape": {"dim": [{"size": "1"}, {"size": "1"}, {"size": "96"}, {"size": "576"}]}}}, "dtype": {"type": "DT_FLOAT"}}}, {"name": "StatefulPartitionedCall/optimized_gesture_model_exp7_1/mobilenetv2_1.00_128_1/block_13_expand_BN_1/batchnorm/sub", "op": "Const", "attr": {"value": {"tensor": {"dtype": "DT_FLOAT", "tensorShape": {"dim": [{"size": "576"}]}}}, "dtype": {"type": "DT_FLOAT"}}}, {"name": "StatefulPartitionedCall/optimized_gesture_model_exp7_1/mobilenetv2_1.00_128_1/block_13_pad_1/Const", "op": "Const", "attr": {"value": {"tensor": {"dtype": "DT_INT32", "tensorShape": {"dim": [{"size": "4"}, {"size": "2"}]}}}, "dtype": {"type": "DT_INT32"}}}, {"name": "StatefulPartitionedCall/optimized_gesture_model_exp7_1/mobilenetv2_1.00_128_1/block_13_depthwise_1/depthwise/ReadVariableOp", "op": "Const", "attr": {"value": {"tensor": {"dtype": "DT_FLOAT", "tensorShape": {"dim": [{"size": "3"}, {"size": "3"}, {"size": "576"}, {"size": "1"}]}}}, "dtype": {"type": "DT_FLOAT"}}}, {"name": "StatefulPartitionedCall/optimized_gesture_model_exp7_1/mobilenetv2_1.00_128_1/block_13_depthwise_BN_1/batchnorm/mul", "op": "Const", "attr": {"value": {"tensor": {"dtype": "DT_FLOAT", "tensorShape": {"dim": [{"size": "576"}]}}}, "dtype": {"type": "DT_FLOAT"}}}, {"name": "StatefulPartitionedCall/optimized_gesture_model_exp7_1/mobilenetv2_1.00_128_1/block_13_depthwise_BN_1/batchnorm/sub", "op": "Const", "attr": {"value": {"tensor": {"dtype": "DT_FLOAT", "tensorShape": {"dim": [{"size": "576"}]}}}, "dtype": {"type": "DT_FLOAT"}}}, {"name": "StatefulPartitionedCall/optimized_gesture_model_exp7_1/mobilenetv2_1.00_128_1/block_13_project_1/convolution/merged_input", "op": "Const", "attr": {"value": {"tensor": {"dtype": "DT_FLOAT", "tensorShape": {"dim": [{"size": "1"}, {"size": "1"}, {"size": "576"}, {"size": "160"}]}}}, "dtype": {"type": "DT_FLOAT"}}}, {"name": "StatefulPartitionedCall/optimized_gesture_model_exp7_1/mobilenetv2_1.00_128_1/block_13_project_BN_1/batchnorm/sub", "op": "Const", "attr": {"value": {"tensor": {"dtype": "DT_FLOAT", "tensorShape": {"dim": [{"size": "160"}]}}}, "dtype": {"type": "DT_FLOAT"}}}, {"name": "StatefulPartitionedCall/optimized_gesture_model_exp7_1/mobilenetv2_1.00_128_1/block_14_expand_1/convolution/merged_input", "op": "Const", "attr": {"value": {"tensor": {"dtype": "DT_FLOAT", "tensorShape": {"dim": [{"size": "1"}, {"size": "1"}, {"size": "160"}, {"size": "960"}]}}}, "dtype": {"type": "DT_FLOAT"}}}, {"name": "StatefulPartitionedCall/optimized_gesture_model_exp7_1/mobilenetv2_1.00_128_1/block_14_expand_BN_1/batchnorm/sub", "op": "Const", "attr": {"value": {"tensor": {"dtype": "DT_FLOAT", "tensorShape": {"dim": [{"size": "960"}]}}}, "dtype": {"type": "DT_FLOAT"}}}, {"name": "StatefulPartitionedCall/optimized_gesture_model_exp7_1/mobilenetv2_1.00_128_1/block_14_depthwise_1/depthwise/ReadVariableOp", "op": "Const", "attr": {"value": {"tensor": {"dtype": "DT_FLOAT", "tensorShape": {"dim": [{"size": "3"}, {"size": "3"}, {"size": "960"}, {"size": "1"}]}}}, "dtype": {"type": "DT_FLOAT"}}}, {"name": "StatefulPartitionedCall/optimized_gesture_model_exp7_1/mobilenetv2_1.00_128_1/block_14_depthwise_BN_1/batchnorm/mul", "op": "Const", "attr": {"value": {"tensor": {"dtype": "DT_FLOAT", "tensorShape": {"dim": [{"size": "960"}]}}}, "dtype": {"type": "DT_FLOAT"}}}, {"name": "StatefulPartitionedCall/optimized_gesture_model_exp7_1/mobilenetv2_1.00_128_1/block_14_depthwise_BN_1/batchnorm/sub", "op": "Const", "attr": {"value": {"tensor": {"dtype": "DT_FLOAT", "tensorShape": {"dim": [{"size": "960"}]}}}, "dtype": {"type": "DT_FLOAT"}}}, {"name": "StatefulPartitionedCall/optimized_gesture_model_exp7_1/mobilenetv2_1.00_128_1/block_14_project_1/convolution/merged_input", "op": "Const", "attr": {"value": {"tensor": {"dtype": "DT_FLOAT", "tensorShape": {"dim": [{"size": "1"}, {"size": "1"}, {"size": "960"}, {"size": "160"}]}}}, "dtype": {"type": "DT_FLOAT"}}}, {"name": "StatefulPartitionedCall/optimized_gesture_model_exp7_1/mobilenetv2_1.00_128_1/block_15_expand_1/convolution/merged_input", "op": "Const", "attr": {"value": {"tensor": {"dtype": "DT_FLOAT", "tensorShape": {"dim": [{"size": "1"}, {"size": "1"}, {"size": "160"}, {"size": "960"}]}}}, "dtype": {"type": "DT_FLOAT"}}}, {"name": "StatefulPartitionedCall/optimized_gesture_model_exp7_1/mobilenetv2_1.00_128_1/block_15_expand_BN_1/batchnorm/sub", "op": "Const", "attr": {"value": {"tensor": {"dtype": "DT_FLOAT", "tensorShape": {"dim": [{"size": "960"}]}}}, "dtype": {"type": "DT_FLOAT"}}}, {"name": "StatefulPartitionedCall/optimized_gesture_model_exp7_1/mobilenetv2_1.00_128_1/block_15_depthwise_1/depthwise/ReadVariableOp", "op": "Const", "attr": {"value": {"tensor": {"dtype": "DT_FLOAT", "tensorShape": {"dim": [{"size": "3"}, {"size": "3"}, {"size": "960"}, {"size": "1"}]}}}, "dtype": {"type": "DT_FLOAT"}}}, {"name": "StatefulPartitionedCall/optimized_gesture_model_exp7_1/mobilenetv2_1.00_128_1/block_15_depthwise_BN_1/batchnorm/mul", "op": "Const", "attr": {"value": {"tensor": {"dtype": "DT_FLOAT", "tensorShape": {"dim": [{"size": "960"}]}}}, "dtype": {"type": "DT_FLOAT"}}}, {"name": "StatefulPartitionedCall/optimized_gesture_model_exp7_1/mobilenetv2_1.00_128_1/block_15_depthwise_BN_1/batchnorm/sub", "op": "Const", "attr": {"value": {"tensor": {"dtype": "DT_FLOAT", "tensorShape": {"dim": [{"size": "960"}]}}}, "dtype": {"type": "DT_FLOAT"}}}, {"name": "StatefulPartitionedCall/optimized_gesture_model_exp7_1/mobilenetv2_1.00_128_1/block_15_project_1/convolution/merged_input", "op": "Const", "attr": {"value": {"tensor": {"dtype": "DT_FLOAT", "tensorShape": {"dim": [{"size": "1"}, {"size": "1"}, {"size": "960"}, {"size": "160"}]}}}, "dtype": {"type": "DT_FLOAT"}}}, {"name": "StatefulPartitionedCall/optimized_gesture_model_exp7_1/mobilenetv2_1.00_128_1/block_16_expand_1/convolution/merged_input", "op": "Const", "attr": {"value": {"tensor": {"dtype": "DT_FLOAT", "tensorShape": {"dim": [{"size": "1"}, {"size": "1"}, {"size": "160"}, {"size": "960"}]}}}, "dtype": {"type": "DT_FLOAT"}}}, {"name": "StatefulPartitionedCall/optimized_gesture_model_exp7_1/mobilenetv2_1.00_128_1/block_16_expand_BN_1/batchnorm/sub", "op": "Const", "attr": {"value": {"tensor": {"dtype": "DT_FLOAT", "tensorShape": {"dim": [{"size": "960"}]}}}, "dtype": {"type": "DT_FLOAT"}}}, {"name": "StatefulPartitionedCall/optimized_gesture_model_exp7_1/mobilenetv2_1.00_128_1/block_16_depthwise_1/depthwise/ReadVariableOp", "op": "Const", "attr": {"value": {"tensor": {"dtype": "DT_FLOAT", "tensorShape": {"dim": [{"size": "3"}, {"size": "3"}, {"size": "960"}, {"size": "1"}]}}}, "dtype": {"type": "DT_FLOAT"}}}, {"name": "StatefulPartitionedCall/optimized_gesture_model_exp7_1/mobilenetv2_1.00_128_1/block_16_depthwise_BN_1/batchnorm/mul", "op": "Const", "attr": {"value": {"tensor": {"dtype": "DT_FLOAT", "tensorShape": {"dim": [{"size": "960"}]}}}, "dtype": {"type": "DT_FLOAT"}}}, {"name": "StatefulPartitionedCall/optimized_gesture_model_exp7_1/mobilenetv2_1.00_128_1/block_16_depthwise_BN_1/batchnorm/sub", "op": "Const", "attr": {"value": {"tensor": {"dtype": "DT_FLOAT", "tensorShape": {"dim": [{"size": "960"}]}}}, "dtype": {"type": "DT_FLOAT"}}}, {"name": "StatefulPartitionedCall/optimized_gesture_model_exp7_1/mobilenetv2_1.00_128_1/block_16_project_1/convolution/merged_input", "op": "Const", "attr": {"value": {"tensor": {"dtype": "DT_FLOAT", "tensorShape": {"dim": [{"size": "1"}, {"size": "1"}, {"size": "960"}, {"size": "320"}]}}}, "dtype": {"type": "DT_FLOAT"}}}, {"name": "StatefulPartitionedCall/optimized_gesture_model_exp7_1/mobilenetv2_1.00_128_1/block_16_project_BN_1/batchnorm/sub", "op": "Const", "attr": {"value": {"tensor": {"dtype": "DT_FLOAT", "tensorShape": {"dim": [{"size": "320"}]}}}, "dtype": {"type": "DT_FLOAT"}}}, {"name": "StatefulPartitionedCall/optimized_gesture_model_exp7_1/mobilenetv2_1.00_128_1/Conv_1_1/convolution/merged_input", "op": "Const", "attr": {"value": {"tensor": {"dtype": "DT_FLOAT", "tensorShape": {"dim": [{"size": "1"}, {"size": "1"}, {"size": "320"}, {"size": "1280"}]}}}, "dtype": {"type": "DT_FLOAT"}}}, {"name": "StatefulPartitionedCall/optimized_gesture_model_exp7_1/mobilenetv2_1.00_128_1/Conv_1_bn_1/batchnorm/sub", "op": "Const", "attr": {"value": {"tensor": {"dtype": "DT_FLOAT", "tensorShape": {"dim": [{"size": "1280"}]}}}, "dtype": {"type": "DT_FLOAT"}}}, {"name": "StatefulPartitionedCall/optimized_gesture_model_exp7_1/global_avg_pooling_1/Mean/reduction_indices", "op": "Const", "attr": {"value": {"tensor": {"dtype": "DT_INT32", "tensorShape": {"dim": [{"size": "2"}]}}}, "dtype": {"type": "DT_INT32"}}}, {"name": "StatefulPartitionedCall/optimized_gesture_model_exp7_1/output_layer_1/Cast/ReadVariableOp", "op": "Const", "attr": {"value": {"tensor": {"dtype": "DT_FLOAT", "tensorShape": {"dim": [{"size": "1280"}, {"size": "5"}]}}}, "dtype": {"type": "DT_FLOAT"}}}, {"name": "StatefulPartitionedCall/optimized_gesture_model_exp7_1/output_layer_1/BiasAdd/ReadVariableOp", "op": "Const", "attr": {"value": {"tensor": {"dtype": "DT_FLOAT", "tensorShape": {"dim": [{"size": "5"}]}}}, "dtype": {"type": "DT_FLOAT"}}}, {"name": "input_layer", "op": "Placeholder", "attr": {"shape": {"shape": {"dim": [{"size": "-1"}, {"size": "128"}, {"size": "128"}, {"size": "3"}]}}, "dtype": {"type": "DT_FLOAT"}}}, {"name": "StatefulPartitionedCall/optimized_gesture_model_exp7_1/mobilenetv2_1.00_128_1/Conv1_relu_1/Relu6", "op": "_FusedConv2D", "input": ["input_layer", "StatefulPartitionedCall/optimized_gesture_model_exp7_1/mobilenetv2_1.00_128_1/Conv1_1/convolution/merged_input", "StatefulPartitionedCall/optimized_gesture_model_exp7_1/mobilenetv2_1.00_128_1/bn_Conv1_1/batchnorm/sub"], "device": "/device:CPU:0", "attr": {"num_host_args": {"i": "0"}, "data_format": {"s": "TkhXQw=="}, "filter_format": {"s": "SFdJTw=="}, "fused_ops": {"list": {"s": ["Qmlhc0FkZA==", "UmVsdTY="]}}, "num_args": {"i": "1"}, "strides": {"list": {"i": ["1", "2", "2", "1"]}}, "TArgs": {"list": {"type": ["DT_FLOAT"]}}, "padding": {"s": "U0FNRQ=="}, "use_cudnn_on_gpu": {"b": true}, "leakyrelu_alpha": {"f": 0.2}, "epsilon": {"f": 0.0}, "T": {"type": "DT_FLOAT"}, "explicit_paddings": {"list": {}}, "dilations": {"list": {"i": ["1", "1", "1", "1"]}}}}, {"name": "StatefulPartitionedCall/optimized_gesture_model_exp7_1/mobilenetv2_1.00_128_1/expanded_conv_depthwise_1/depthwise", "op": "DepthwiseConv2dNative", "input": ["StatefulPartitionedCall/optimized_gesture_model_exp7_1/mobilenetv2_1.00_128_1/Conv1_relu_1/Relu6", "StatefulPartitionedCall/optimized_gesture_model_exp7_1/mobilenetv2_1.00_128_1/expanded_conv_depthwise_1/depthwise/ReadVariableOp"], "attr": {"padding": {"s": "U0FNRQ=="}, "data_format": {"s": "TkhXQw=="}, "T": {"type": "DT_FLOAT"}, "explicit_paddings": {"list": {}}, "dilations": {"list": {"i": ["1", "1", "1", "1"]}}, "strides": {"list": {"i": ["1", "1", "1", "1"]}}}}, {"name": "StatefulPartitionedCall/optimized_gesture_model_exp7_1/mobilenetv2_1.00_128_1/expanded_conv_depthwise_BN_1/batchnorm/mul_1", "op": "Mul", "input": ["StatefulPartitionedCall/optimized_gesture_model_exp7_1/mobilenetv2_1.00_128_1/expanded_conv_depthwise_1/depthwise", "StatefulPartitionedCall/optimized_gesture_model_exp7_1/mobilenetv2_1.00_128_1/expanded_conv_depthwise_BN_1/batchnorm/mul"], "attr": {"T": {"type": "DT_FLOAT"}}}, {"name": "StatefulPartitionedCall/optimized_gesture_model_exp7_1/mobilenetv2_1.00_128_1/expanded_conv_depthwise_BN_1/batchnorm/add_1", "op": "AddV2", "input": ["StatefulPartitionedCall/optimized_gesture_model_exp7_1/mobilenetv2_1.00_128_1/expanded_conv_depthwise_BN_1/batchnorm/mul_1", "StatefulPartitionedCall/optimized_gesture_model_exp7_1/mobilenetv2_1.00_128_1/expanded_conv_depthwise_BN_1/batchnorm/sub"], "attr": {"T": {"type": "DT_FLOAT"}}}, {"name": "StatefulPartitionedCall/optimized_gesture_model_exp7_1/mobilenetv2_1.00_128_1/expanded_conv_depthwise_relu_1/Relu6", "op": "Relu6", "input": ["StatefulPartitionedCall/optimized_gesture_model_exp7_1/mobilenetv2_1.00_128_1/expanded_conv_depthwise_BN_1/batchnorm/add_1"], "attr": {"T": {"type": "DT_FLOAT"}}}, {"name": "StatefulPartitionedCall/optimized_gesture_model_exp7_1/mobilenetv2_1.00_128_1/expanded_conv_project_BN_1/batchnorm/add_1", "op": "_FusedConv2D", "input": ["StatefulPartitionedCall/optimized_gesture_model_exp7_1/mobilenetv2_1.00_128_1/expanded_conv_depthwise_relu_1/Relu6", "StatefulPartitionedCall/optimized_gesture_model_exp7_1/mobilenetv2_1.00_128_1/expanded_conv_project_1/convolution/merged_input", "StatefulPartitionedCall/optimized_gesture_model_exp7_1/mobilenetv2_1.00_128_1/expanded_conv_project_BN_1/batchnorm/sub"], "device": "/device:CPU:0", "attr": {"num_host_args": {"i": "0"}, "data_format": {"s": "TkhXQw=="}, "filter_format": {"s": "SFdJTw=="}, "fused_ops": {"list": {"s": ["Qmlhc0FkZA=="]}}, "num_args": {"i": "1"}, "strides": {"list": {"i": ["1", "1", "1", "1"]}}, "TArgs": {"list": {"type": ["DT_FLOAT"]}}, "padding": {"s": "U0FNRQ=="}, "use_cudnn_on_gpu": {"b": true}, "leakyrelu_alpha": {"f": 0.2}, "epsilon": {"f": 0.0}, "T": {"type": "DT_FLOAT"}, "explicit_paddings": {"list": {}}, "dilations": {"list": {"i": ["1", "1", "1", "1"]}}}}, {"name": "StatefulPartitionedCall/optimized_gesture_model_exp7_1/mobilenetv2_1.00_128_1/block_1_expand_relu_1/Relu6", "op": "_FusedConv2D", "input": ["StatefulPartitionedCall/optimized_gesture_model_exp7_1/mobilenetv2_1.00_128_1/expanded_conv_project_BN_1/batchnorm/add_1", "StatefulPartitionedCall/optimized_gesture_model_exp7_1/mobilenetv2_1.00_128_1/block_1_expand_1/convolution/merged_input", "StatefulPartitionedCall/optimized_gesture_model_exp7_1/mobilenetv2_1.00_128_1/block_1_expand_BN_1/batchnorm/sub"], "device": "/device:CPU:0", "attr": {"num_host_args": {"i": "0"}, "data_format": {"s": "TkhXQw=="}, "filter_format": {"s": "SFdJTw=="}, "strides": {"list": {"i": ["1", "1", "1", "1"]}}, "num_args": {"i": "1"}, "fused_ops": {"list": {"s": ["Qmlhc0FkZA==", "UmVsdTY="]}}, "TArgs": {"list": {"type": ["DT_FLOAT"]}}, "padding": {"s": "U0FNRQ=="}, "use_cudnn_on_gpu": {"b": true}, "leakyrelu_alpha": {"f": 0.2}, "epsilon": {"f": 0.0}, "T": {"type": "DT_FLOAT"}, "explicit_paddings": {"list": {}}, "dilations": {"list": {"i": ["1", "1", "1", "1"]}}}}, {"name": "StatefulPartitionedCall/optimized_gesture_model_exp7_1/mobilenetv2_1.00_128_1/block_1_pad_1/Pad", "op": "Pad", "input": ["StatefulPartitionedCall/optimized_gesture_model_exp7_1/mobilenetv2_1.00_128_1/block_1_expand_relu_1/Relu6", "StatefulPartitionedCall/optimized_gesture_model_exp7_1/mobilenetv2_1.00_128_1/block_1_pad_1/Const"], "attr": {"Tpaddings": {"type": "DT_INT32"}, "T": {"type": "DT_FLOAT"}}}, {"name": "StatefulPartitionedCall/optimized_gesture_model_exp7_1/mobilenetv2_1.00_128_1/block_1_depthwise_1/depthwise", "op": "DepthwiseConv2dNative", "input": ["StatefulPartitionedCall/optimized_gesture_model_exp7_1/mobilenetv2_1.00_128_1/block_1_pad_1/Pad", "StatefulPartitionedCall/optimized_gesture_model_exp7_1/mobilenetv2_1.00_128_1/block_1_depthwise_1/depthwise/ReadVariableOp"], "attr": {"padding": {"s": "VkFMSUQ="}, "data_format": {"s": "TkhXQw=="}, "T": {"type": "DT_FLOAT"}, "explicit_paddings": {"list": {}}, "dilations": {"list": {"i": ["1", "1", "1", "1"]}}, "strides": {"list": {"i": ["1", "2", "2", "1"]}}}}, {"name": "StatefulPartitionedCall/optimized_gesture_model_exp7_1/mobilenetv2_1.00_128_1/block_1_depthwise_BN_1/batchnorm/mul_1", "op": "Mul", "input": ["StatefulPartitionedCall/optimized_gesture_model_exp7_1/mobilenetv2_1.00_128_1/block_1_depthwise_1/depthwise", "StatefulPartitionedCall/optimized_gesture_model_exp7_1/mobilenetv2_1.00_128_1/block_1_depthwise_BN_1/batchnorm/mul"], "attr": {"T": {"type": "DT_FLOAT"}}}, {"name": "StatefulPartitionedCall/optimized_gesture_model_exp7_1/mobilenetv2_1.00_128_1/block_1_depthwise_BN_1/batchnorm/add_1", "op": "AddV2", "input": ["StatefulPartitionedCall/optimized_gesture_model_exp7_1/mobilenetv2_1.00_128_1/block_1_depthwise_BN_1/batchnorm/mul_1", "StatefulPartitionedCall/optimized_gesture_model_exp7_1/mobilenetv2_1.00_128_1/block_1_depthwise_BN_1/batchnorm/sub"], "attr": {"T": {"type": "DT_FLOAT"}}}, {"name": "StatefulPartitionedCall/optimized_gesture_model_exp7_1/mobilenetv2_1.00_128_1/block_1_depthwise_relu_1/Relu6", "op": "Relu6", "input": ["StatefulPartitionedCall/optimized_gesture_model_exp7_1/mobilenetv2_1.00_128_1/block_1_depthwise_BN_1/batchnorm/add_1"], "attr": {"T": {"type": "DT_FLOAT"}}}, {"name": "StatefulPartitionedCall/optimized_gesture_model_exp7_1/mobilenetv2_1.00_128_1/block_1_project_BN_1/batchnorm/add_1", "op": "_FusedConv2D", "input": ["StatefulPartitionedCall/optimized_gesture_model_exp7_1/mobilenetv2_1.00_128_1/block_1_depthwise_relu_1/Relu6", "StatefulPartitionedCall/optimized_gesture_model_exp7_1/mobilenetv2_1.00_128_1/block_1_project_1/convolution/merged_input", "StatefulPartitionedCall/optimized_gesture_model_exp7_1/mobilenetv2_1.00_128_1/block_1_project_BN_1/batchnorm/sub"], "device": "/device:CPU:0", "attr": {"num_host_args": {"i": "0"}, "data_format": {"s": "TkhXQw=="}, "filter_format": {"s": "SFdJTw=="}, "fused_ops": {"list": {"s": ["Qmlhc0FkZA=="]}}, "num_args": {"i": "1"}, "strides": {"list": {"i": ["1", "1", "1", "1"]}}, "TArgs": {"list": {"type": ["DT_FLOAT"]}}, "padding": {"s": "U0FNRQ=="}, "use_cudnn_on_gpu": {"b": true}, "leakyrelu_alpha": {"f": 0.2}, "epsilon": {"f": 0.0}, "T": {"type": "DT_FLOAT"}, "explicit_paddings": {"list": {}}, "dilations": {"list": {"i": ["1", "1", "1", "1"]}}}}, {"name": "StatefulPartitionedCall/optimized_gesture_model_exp7_1/mobilenetv2_1.00_128_1/block_2_expand_relu_1/Relu6", "op": "_FusedConv2D", "input": ["StatefulPartitionedCall/optimized_gesture_model_exp7_1/mobilenetv2_1.00_128_1/block_1_project_BN_1/batchnorm/add_1", "StatefulPartitionedCall/optimized_gesture_model_exp7_1/mobilenetv2_1.00_128_1/block_2_expand_1/convolution/merged_input", "StatefulPartitionedCall/optimized_gesture_model_exp7_1/mobilenetv2_1.00_128_1/block_2_expand_BN_1/batchnorm/sub"], "device": "/device:CPU:0", "attr": {"num_host_args": {"i": "0"}, "data_format": {"s": "TkhXQw=="}, "filter_format": {"s": "SFdJTw=="}, "strides": {"list": {"i": ["1", "1", "1", "1"]}}, "num_args": {"i": "1"}, "fused_ops": {"list": {"s": ["Qmlhc0FkZA==", "UmVsdTY="]}}, "TArgs": {"list": {"type": ["DT_FLOAT"]}}, "padding": {"s": "U0FNRQ=="}, "use_cudnn_on_gpu": {"b": true}, "leakyrelu_alpha": {"f": 0.2}, "epsilon": {"f": 0.0}, "T": {"type": "DT_FLOAT"}, "explicit_paddings": {"list": {}}, "dilations": {"list": {"i": ["1", "1", "1", "1"]}}}}, {"name": "StatefulPartitionedCall/optimized_gesture_model_exp7_1/mobilenetv2_1.00_128_1/block_2_depthwise_1/depthwise", "op": "DepthwiseConv2dNative", "input": ["StatefulPartitionedCall/optimized_gesture_model_exp7_1/mobilenetv2_1.00_128_1/block_2_expand_relu_1/Relu6", "StatefulPartitionedCall/optimized_gesture_model_exp7_1/mobilenetv2_1.00_128_1/block_2_depthwise_1/depthwise/ReadVariableOp"], "attr": {"padding": {"s": "U0FNRQ=="}, "data_format": {"s": "TkhXQw=="}, "T": {"type": "DT_FLOAT"}, "explicit_paddings": {"list": {}}, "dilations": {"list": {"i": ["1", "1", "1", "1"]}}, "strides": {"list": {"i": ["1", "1", "1", "1"]}}}}, {"name": "StatefulPartitionedCall/optimized_gesture_model_exp7_1/mobilenetv2_1.00_128_1/block_2_depthwise_BN_1/batchnorm/mul_1", "op": "Mul", "input": ["StatefulPartitionedCall/optimized_gesture_model_exp7_1/mobilenetv2_1.00_128_1/block_2_depthwise_1/depthwise", "StatefulPartitionedCall/optimized_gesture_model_exp7_1/mobilenetv2_1.00_128_1/block_2_depthwise_BN_1/batchnorm/mul"], "attr": {"T": {"type": "DT_FLOAT"}}}, {"name": "StatefulPartitionedCall/optimized_gesture_model_exp7_1/mobilenetv2_1.00_128_1/block_2_depthwise_BN_1/batchnorm/add_1", "op": "AddV2", "input": ["StatefulPartitionedCall/optimized_gesture_model_exp7_1/mobilenetv2_1.00_128_1/block_2_depthwise_BN_1/batchnorm/mul_1", "StatefulPartitionedCall/optimized_gesture_model_exp7_1/mobilenetv2_1.00_128_1/block_2_depthwise_BN_1/batchnorm/sub"], "attr": {"T": {"type": "DT_FLOAT"}}}, {"name": "StatefulPartitionedCall/optimized_gesture_model_exp7_1/mobilenetv2_1.00_128_1/block_2_depthwise_relu_1/Relu6", "op": "Relu6", "input": ["StatefulPartitionedCall/optimized_gesture_model_exp7_1/mobilenetv2_1.00_128_1/block_2_depthwise_BN_1/batchnorm/add_1"], "attr": {"T": {"type": "DT_FLOAT"}}}, {"name": "StatefulPartitionedCall/optimized_gesture_model_exp7_1/mobilenetv2_1.00_128_1/block_2_project_BN_1/batchnorm/mul_1", "op": "Conv2D", "input": ["StatefulPartitionedCall/optimized_gesture_model_exp7_1/mobilenetv2_1.00_128_1/block_2_depthwise_relu_1/Relu6", "StatefulPartitionedCall/optimized_gesture_model_exp7_1/mobilenetv2_1.00_128_1/block_2_project_1/convolution/merged_input"], "device": "/device:CPU:0", "attr": {"padding": {"s": "U0FNRQ=="}, "data_format": {"s": "TkhXQw=="}, "use_cudnn_on_gpu": {"b": true}, "strides": {"list": {"i": ["1", "1", "1", "1"]}}, "T": {"type": "DT_FLOAT"}, "explicit_paddings": {"list": {}}, "dilations": {"list": {"i": ["1", "1", "1", "1"]}}}}, {"name": "StatefulPartitionedCall/optimized_gesture_model_exp7_1/mobilenetv2_1.00_128_1/block_2_add_1/ArithmeticOptimizer/AddOpsRewrite_Leaf_1_Add", "op": "AddN", "input": ["StatefulPartitionedCall/optimized_gesture_model_exp7_1/mobilenetv2_1.00_128_1/block_1_project_BN_1/batchnorm/add_1", "StatefulPartitionedCall/optimized_gesture_model_exp7_1/mobilenetv2_1.00_128_1/block_2_project_BN_1/batchnorm/mul_1"], "attr": {"N": {"i": "2"}, "T": {"type": "DT_FLOAT"}, "_grappler_ArithmeticOptimizer_AddOpsRewriteStage": {"b": true}}}, {"name": "StatefulPartitionedCall/optimized_gesture_model_exp7_1/mobilenetv2_1.00_128_1/block_2_add_1/ArithmeticOptimizer/AddOpsRewrite_Add", "op": "AddV2", "input": ["StatefulPartitionedCall/optimized_gesture_model_exp7_1/mobilenetv2_1.00_128_1/block_2_project_BN_1/batchnorm/sub", "StatefulPartitionedCall/optimized_gesture_model_exp7_1/mobilenetv2_1.00_128_1/block_2_add_1/ArithmeticOptimizer/AddOpsRewrite_Leaf_1_Add"], "attr": {"T": {"type": "DT_FLOAT"}, "_grappler_ArithmeticOptimizer_AddOpsRewriteStage": {"b": true}}}, {"name": "StatefulPartitionedCall/optimized_gesture_model_exp7_1/mobilenetv2_1.00_128_1/block_3_expand_relu_1/Relu6", "op": "_FusedConv2D", "input": ["StatefulPartitionedCall/optimized_gesture_model_exp7_1/mobilenetv2_1.00_128_1/block_2_add_1/ArithmeticOptimizer/AddOpsRewrite_Add", "StatefulPartitionedCall/optimized_gesture_model_exp7_1/mobilenetv2_1.00_128_1/block_3_expand_1/convolution/merged_input", "StatefulPartitionedCall/optimized_gesture_model_exp7_1/mobilenetv2_1.00_128_1/block_3_expand_BN_1/batchnorm/sub"], "device": "/device:CPU:0", "attr": {"num_host_args": {"i": "0"}, "data_format": {"s": "TkhXQw=="}, "filter_format": {"s": "SFdJTw=="}, "fused_ops": {"list": {"s": ["Qmlhc0FkZA==", "UmVsdTY="]}}, "num_args": {"i": "1"}, "strides": {"list": {"i": ["1", "1", "1", "1"]}}, "TArgs": {"list": {"type": ["DT_FLOAT"]}}, "padding": {"s": "U0FNRQ=="}, "use_cudnn_on_gpu": {"b": true}, "leakyrelu_alpha": {"f": 0.2}, "epsilon": {"f": 0.0}, "T": {"type": "DT_FLOAT"}, "explicit_paddings": {"list": {}}, "dilations": {"list": {"i": ["1", "1", "1", "1"]}}}}, {"name": "StatefulPartitionedCall/optimized_gesture_model_exp7_1/mobilenetv2_1.00_128_1/block_3_pad_1/Pad", "op": "Pad", "input": ["StatefulPartitionedCall/optimized_gesture_model_exp7_1/mobilenetv2_1.00_128_1/block_3_expand_relu_1/Relu6", "StatefulPartitionedCall/optimized_gesture_model_exp7_1/mobilenetv2_1.00_128_1/block_3_pad_1/Const"], "attr": {"Tpaddings": {"type": "DT_INT32"}, "T": {"type": "DT_FLOAT"}}}, {"name": "StatefulPartitionedCall/optimized_gesture_model_exp7_1/mobilenetv2_1.00_128_1/block_3_depthwise_1/depthwise", "op": "DepthwiseConv2dNative", "input": ["StatefulPartitionedCall/optimized_gesture_model_exp7_1/mobilenetv2_1.00_128_1/block_3_pad_1/Pad", "StatefulPartitionedCall/optimized_gesture_model_exp7_1/mobilenetv2_1.00_128_1/block_3_depthwise_1/depthwise/ReadVariableOp"], "attr": {"padding": {"s": "VkFMSUQ="}, "data_format": {"s": "TkhXQw=="}, "T": {"type": "DT_FLOAT"}, "explicit_paddings": {"list": {}}, "dilations": {"list": {"i": ["1", "1", "1", "1"]}}, "strides": {"list": {"i": ["1", "2", "2", "1"]}}}}, {"name": "StatefulPartitionedCall/optimized_gesture_model_exp7_1/mobilenetv2_1.00_128_1/block_3_depthwise_BN_1/batchnorm/mul_1", "op": "Mul", "input": ["StatefulPartitionedCall/optimized_gesture_model_exp7_1/mobilenetv2_1.00_128_1/block_3_depthwise_1/depthwise", "StatefulPartitionedCall/optimized_gesture_model_exp7_1/mobilenetv2_1.00_128_1/block_3_depthwise_BN_1/batchnorm/mul"], "attr": {"T": {"type": "DT_FLOAT"}}}, {"name": "StatefulPartitionedCall/optimized_gesture_model_exp7_1/mobilenetv2_1.00_128_1/block_3_depthwise_BN_1/batchnorm/add_1", "op": "AddV2", "input": ["StatefulPartitionedCall/optimized_gesture_model_exp7_1/mobilenetv2_1.00_128_1/block_3_depthwise_BN_1/batchnorm/mul_1", "StatefulPartitionedCall/optimized_gesture_model_exp7_1/mobilenetv2_1.00_128_1/block_3_depthwise_BN_1/batchnorm/sub"], "attr": {"T": {"type": "DT_FLOAT"}}}, {"name": "StatefulPartitionedCall/optimized_gesture_model_exp7_1/mobilenetv2_1.00_128_1/block_3_depthwise_relu_1/Relu6", "op": "Relu6", "input": ["StatefulPartitionedCall/optimized_gesture_model_exp7_1/mobilenetv2_1.00_128_1/block_3_depthwise_BN_1/batchnorm/add_1"], "attr": {"T": {"type": "DT_FLOAT"}}}, {"name": "StatefulPartitionedCall/optimized_gesture_model_exp7_1/mobilenetv2_1.00_128_1/block_3_project_BN_1/batchnorm/add_1", "op": "_FusedConv2D", "input": ["StatefulPartitionedCall/optimized_gesture_model_exp7_1/mobilenetv2_1.00_128_1/block_3_depthwise_relu_1/Relu6", "StatefulPartitionedCall/optimized_gesture_model_exp7_1/mobilenetv2_1.00_128_1/block_3_project_1/convolution/merged_input", "StatefulPartitionedCall/optimized_gesture_model_exp7_1/mobilenetv2_1.00_128_1/block_3_project_BN_1/batchnorm/sub"], "device": "/device:CPU:0", "attr": {"num_host_args": {"i": "0"}, "data_format": {"s": "TkhXQw=="}, "filter_format": {"s": "SFdJTw=="}, "strides": {"list": {"i": ["1", "1", "1", "1"]}}, "num_args": {"i": "1"}, "fused_ops": {"list": {"s": ["Qmlhc0FkZA=="]}}, "TArgs": {"list": {"type": ["DT_FLOAT"]}}, "padding": {"s": "U0FNRQ=="}, "use_cudnn_on_gpu": {"b": true}, "leakyrelu_alpha": {"f": 0.2}, "epsilon": {"f": 0.0}, "T": {"type": "DT_FLOAT"}, "explicit_paddings": {"list": {}}, "dilations": {"list": {"i": ["1", "1", "1", "1"]}}}}, {"name": "StatefulPartitionedCall/optimized_gesture_model_exp7_1/mobilenetv2_1.00_128_1/block_4_expand_relu_1/Relu6", "op": "_FusedConv2D", "input": ["StatefulPartitionedCall/optimized_gesture_model_exp7_1/mobilenetv2_1.00_128_1/block_3_project_BN_1/batchnorm/add_1", "StatefulPartitionedCall/optimized_gesture_model_exp7_1/mobilenetv2_1.00_128_1/block_4_expand_1/convolution/merged_input", "StatefulPartitionedCall/optimized_gesture_model_exp7_1/mobilenetv2_1.00_128_1/block_4_expand_BN_1/batchnorm/sub"], "device": "/device:CPU:0", "attr": {"num_host_args": {"i": "0"}, "data_format": {"s": "TkhXQw=="}, "filter_format": {"s": "SFdJTw=="}, "strides": {"list": {"i": ["1", "1", "1", "1"]}}, "num_args": {"i": "1"}, "fused_ops": {"list": {"s": ["Qmlhc0FkZA==", "UmVsdTY="]}}, "TArgs": {"list": {"type": ["DT_FLOAT"]}}, "padding": {"s": "U0FNRQ=="}, "use_cudnn_on_gpu": {"b": true}, "leakyrelu_alpha": {"f": 0.2}, "epsilon": {"f": 0.0}, "T": {"type": "DT_FLOAT"}, "explicit_paddings": {"list": {}}, "dilations": {"list": {"i": ["1", "1", "1", "1"]}}}}, {"name": "StatefulPartitionedCall/optimized_gesture_model_exp7_1/mobilenetv2_1.00_128_1/block_4_depthwise_1/depthwise", "op": "DepthwiseConv2dNative", "input": ["StatefulPartitionedCall/optimized_gesture_model_exp7_1/mobilenetv2_1.00_128_1/block_4_expand_relu_1/Relu6", "StatefulPartitionedCall/optimized_gesture_model_exp7_1/mobilenetv2_1.00_128_1/block_4_depthwise_1/depthwise/ReadVariableOp"], "attr": {"padding": {"s": "U0FNRQ=="}, "data_format": {"s": "TkhXQw=="}, "T": {"type": "DT_FLOAT"}, "explicit_paddings": {"list": {}}, "dilations": {"list": {"i": ["1", "1", "1", "1"]}}, "strides": {"list": {"i": ["1", "1", "1", "1"]}}}}, {"name": "StatefulPartitionedCall/optimized_gesture_model_exp7_1/mobilenetv2_1.00_128_1/block_4_depthwise_BN_1/batchnorm/mul_1", "op": "Mul", "input": ["StatefulPartitionedCall/optimized_gesture_model_exp7_1/mobilenetv2_1.00_128_1/block_4_depthwise_1/depthwise", "StatefulPartitionedCall/optimized_gesture_model_exp7_1/mobilenetv2_1.00_128_1/block_4_depthwise_BN_1/batchnorm/mul"], "attr": {"T": {"type": "DT_FLOAT"}}}, {"name": "StatefulPartitionedCall/optimized_gesture_model_exp7_1/mobilenetv2_1.00_128_1/block_4_depthwise_BN_1/batchnorm/add_1", "op": "AddV2", "input": ["StatefulPartitionedCall/optimized_gesture_model_exp7_1/mobilenetv2_1.00_128_1/block_4_depthwise_BN_1/batchnorm/mul_1", "StatefulPartitionedCall/optimized_gesture_model_exp7_1/mobilenetv2_1.00_128_1/block_4_depthwise_BN_1/batchnorm/sub"], "attr": {"T": {"type": "DT_FLOAT"}}}, {"name": "StatefulPartitionedCall/optimized_gesture_model_exp7_1/mobilenetv2_1.00_128_1/block_4_depthwise_relu_1/Relu6", "op": "Relu6", "input": ["StatefulPartitionedCall/optimized_gesture_model_exp7_1/mobilenetv2_1.00_128_1/block_4_depthwise_BN_1/batchnorm/add_1"], "attr": {"T": {"type": "DT_FLOAT"}}}, {"name": "StatefulPartitionedCall/optimized_gesture_model_exp7_1/mobilenetv2_1.00_128_1/block_4_project_BN_1/batchnorm/mul_1", "op": "Conv2D", "input": ["StatefulPartitionedCall/optimized_gesture_model_exp7_1/mobilenetv2_1.00_128_1/block_4_depthwise_relu_1/Relu6", "StatefulPartitionedCall/optimized_gesture_model_exp7_1/mobilenetv2_1.00_128_1/block_4_project_1/convolution/merged_input"], "device": "/device:CPU:0", "attr": {"padding": {"s": "U0FNRQ=="}, "data_format": {"s": "TkhXQw=="}, "use_cudnn_on_gpu": {"b": true}, "strides": {"list": {"i": ["1", "1", "1", "1"]}}, "T": {"type": "DT_FLOAT"}, "explicit_paddings": {"list": {}}, "dilations": {"list": {"i": ["1", "1", "1", "1"]}}}}, {"name": "StatefulPartitionedCall/optimized_gesture_model_exp7_1/mobilenetv2_1.00_128_1/block_4_add_1/ArithmeticOptimizer/AddOpsRewrite_Leaf_1_Add", "op": "AddN", "input": ["StatefulPartitionedCall/optimized_gesture_model_exp7_1/mobilenetv2_1.00_128_1/block_3_project_BN_1/batchnorm/add_1", "StatefulPartitionedCall/optimized_gesture_model_exp7_1/mobilenetv2_1.00_128_1/block_4_project_BN_1/batchnorm/mul_1"], "attr": {"N": {"i": "2"}, "T": {"type": "DT_FLOAT"}, "_grappler_ArithmeticOptimizer_AddOpsRewriteStage": {"b": true}}}, {"name": "StatefulPartitionedCall/optimized_gesture_model_exp7_1/mobilenetv2_1.00_128_1/block_4_add_1/ArithmeticOptimizer/AddOpsRewrite_Add", "op": "AddV2", "input": ["StatefulPartitionedCall/optimized_gesture_model_exp7_1/mobilenetv2_1.00_128_1/block_4_project_BN_1/batchnorm/sub", "StatefulPartitionedCall/optimized_gesture_model_exp7_1/mobilenetv2_1.00_128_1/block_4_add_1/ArithmeticOptimizer/AddOpsRewrite_Leaf_1_Add"], "attr": {"T": {"type": "DT_FLOAT"}, "_grappler_ArithmeticOptimizer_AddOpsRewriteStage": {"b": true}}}, {"name": "StatefulPartitionedCall/optimized_gesture_model_exp7_1/mobilenetv2_1.00_128_1/block_5_expand_relu_1/Relu6", "op": "_FusedConv2D", "input": ["StatefulPartitionedCall/optimized_gesture_model_exp7_1/mobilenetv2_1.00_128_1/block_4_add_1/ArithmeticOptimizer/AddOpsRewrite_Add", "StatefulPartitionedCall/optimized_gesture_model_exp7_1/mobilenetv2_1.00_128_1/block_5_expand_1/convolution/merged_input", "StatefulPartitionedCall/optimized_gesture_model_exp7_1/mobilenetv2_1.00_128_1/block_5_expand_BN_1/batchnorm/sub"], "device": "/device:CPU:0", "attr": {"num_host_args": {"i": "0"}, "data_format": {"s": "TkhXQw=="}, "filter_format": {"s": "SFdJTw=="}, "strides": {"list": {"i": ["1", "1", "1", "1"]}}, "num_args": {"i": "1"}, "fused_ops": {"list": {"s": ["Qmlhc0FkZA==", "UmVsdTY="]}}, "TArgs": {"list": {"type": ["DT_FLOAT"]}}, "padding": {"s": "U0FNRQ=="}, "use_cudnn_on_gpu": {"b": true}, "leakyrelu_alpha": {"f": 0.2}, "epsilon": {"f": 0.0}, "T": {"type": "DT_FLOAT"}, "explicit_paddings": {"list": {}}, "dilations": {"list": {"i": ["1", "1", "1", "1"]}}}}, {"name": "StatefulPartitionedCall/optimized_gesture_model_exp7_1/mobilenetv2_1.00_128_1/block_5_depthwise_1/depthwise", "op": "DepthwiseConv2dNative", "input": ["StatefulPartitionedCall/optimized_gesture_model_exp7_1/mobilenetv2_1.00_128_1/block_5_expand_relu_1/Relu6", "StatefulPartitionedCall/optimized_gesture_model_exp7_1/mobilenetv2_1.00_128_1/block_5_depthwise_1/depthwise/ReadVariableOp"], "attr": {"padding": {"s": "U0FNRQ=="}, "data_format": {"s": "TkhXQw=="}, "T": {"type": "DT_FLOAT"}, "explicit_paddings": {"list": {}}, "dilations": {"list": {"i": ["1", "1", "1", "1"]}}, "strides": {"list": {"i": ["1", "1", "1", "1"]}}}}, {"name": "StatefulPartitionedCall/optimized_gesture_model_exp7_1/mobilenetv2_1.00_128_1/block_5_depthwise_BN_1/batchnorm/mul_1", "op": "Mul", "input": ["StatefulPartitionedCall/optimized_gesture_model_exp7_1/mobilenetv2_1.00_128_1/block_5_depthwise_1/depthwise", "StatefulPartitionedCall/optimized_gesture_model_exp7_1/mobilenetv2_1.00_128_1/block_5_depthwise_BN_1/batchnorm/mul"], "attr": {"T": {"type": "DT_FLOAT"}}}, {"name": "StatefulPartitionedCall/optimized_gesture_model_exp7_1/mobilenetv2_1.00_128_1/block_5_depthwise_BN_1/batchnorm/add_1", "op": "AddV2", "input": ["StatefulPartitionedCall/optimized_gesture_model_exp7_1/mobilenetv2_1.00_128_1/block_5_depthwise_BN_1/batchnorm/mul_1", "StatefulPartitionedCall/optimized_gesture_model_exp7_1/mobilenetv2_1.00_128_1/block_5_depthwise_BN_1/batchnorm/sub"], "attr": {"T": {"type": "DT_FLOAT"}}}, {"name": "StatefulPartitionedCall/optimized_gesture_model_exp7_1/mobilenetv2_1.00_128_1/block_5_depthwise_relu_1/Relu6", "op": "Relu6", "input": ["StatefulPartitionedCall/optimized_gesture_model_exp7_1/mobilenetv2_1.00_128_1/block_5_depthwise_BN_1/batchnorm/add_1"], "attr": {"T": {"type": "DT_FLOAT"}}}, {"name": "StatefulPartitionedCall/optimized_gesture_model_exp7_1/mobilenetv2_1.00_128_1/block_5_project_BN_1/batchnorm/mul_1", "op": "Conv2D", "input": ["StatefulPartitionedCall/optimized_gesture_model_exp7_1/mobilenetv2_1.00_128_1/block_5_depthwise_relu_1/Relu6", "StatefulPartitionedCall/optimized_gesture_model_exp7_1/mobilenetv2_1.00_128_1/block_5_project_1/convolution/merged_input"], "device": "/device:CPU:0", "attr": {"padding": {"s": "U0FNRQ=="}, "data_format": {"s": "TkhXQw=="}, "use_cudnn_on_gpu": {"b": true}, "strides": {"list": {"i": ["1", "1", "1", "1"]}}, "T": {"type": "DT_FLOAT"}, "explicit_paddings": {"list": {}}, "dilations": {"list": {"i": ["1", "1", "1", "1"]}}}}, {"name": "StatefulPartitionedCall/optimized_gesture_model_exp7_1/mobilenetv2_1.00_128_1/block_5_add_1/ArithmeticOptimizer/AddOpsRewrite_Leaf_1_Add", "op": "AddN", "input": ["StatefulPartitionedCall/optimized_gesture_model_exp7_1/mobilenetv2_1.00_128_1/block_4_add_1/ArithmeticOptimizer/AddOpsRewrite_Add", "StatefulPartitionedCall/optimized_gesture_model_exp7_1/mobilenetv2_1.00_128_1/block_5_project_BN_1/batchnorm/mul_1"], "attr": {"N": {"i": "2"}, "T": {"type": "DT_FLOAT"}, "_grappler_ArithmeticOptimizer_AddOpsRewriteStage": {"b": true}}}, {"name": "StatefulPartitionedCall/optimized_gesture_model_exp7_1/mobilenetv2_1.00_128_1/block_5_add_1/ArithmeticOptimizer/AddOpsRewrite_Add", "op": "AddV2", "input": ["StatefulPartitionedCall/optimized_gesture_model_exp7_1/mobilenetv2_1.00_128_1/block_5_project_BN_1/batchnorm/sub", "StatefulPartitionedCall/optimized_gesture_model_exp7_1/mobilenetv2_1.00_128_1/block_5_add_1/ArithmeticOptimizer/AddOpsRewrite_Leaf_1_Add"], "attr": {"T": {"type": "DT_FLOAT"}, "_grappler_ArithmeticOptimizer_AddOpsRewriteStage": {"b": true}}}, {"name": "StatefulPartitionedCall/optimized_gesture_model_exp7_1/mobilenetv2_1.00_128_1/block_6_expand_relu_1/Relu6", "op": "_FusedConv2D", "input": ["StatefulPartitionedCall/optimized_gesture_model_exp7_1/mobilenetv2_1.00_128_1/block_5_add_1/ArithmeticOptimizer/AddOpsRewrite_Add", "StatefulPartitionedCall/optimized_gesture_model_exp7_1/mobilenetv2_1.00_128_1/block_6_expand_1/convolution/merged_input", "StatefulPartitionedCall/optimized_gesture_model_exp7_1/mobilenetv2_1.00_128_1/block_6_expand_BN_1/batchnorm/sub"], "device": "/device:CPU:0", "attr": {"num_host_args": {"i": "0"}, "data_format": {"s": "TkhXQw=="}, "filter_format": {"s": "SFdJTw=="}, "strides": {"list": {"i": ["1", "1", "1", "1"]}}, "num_args": {"i": "1"}, "fused_ops": {"list": {"s": ["Qmlhc0FkZA==", "UmVsdTY="]}}, "TArgs": {"list": {"type": ["DT_FLOAT"]}}, "padding": {"s": "U0FNRQ=="}, "use_cudnn_on_gpu": {"b": true}, "leakyrelu_alpha": {"f": 0.2}, "epsilon": {"f": 0.0}, "T": {"type": "DT_FLOAT"}, "explicit_paddings": {"list": {}}, "dilations": {"list": {"i": ["1", "1", "1", "1"]}}}}, {"name": "StatefulPartitionedCall/optimized_gesture_model_exp7_1/mobilenetv2_1.00_128_1/block_6_pad_1/Pad", "op": "Pad", "input": ["StatefulPartitionedCall/optimized_gesture_model_exp7_1/mobilenetv2_1.00_128_1/block_6_expand_relu_1/Relu6", "StatefulPartitionedCall/optimized_gesture_model_exp7_1/mobilenetv2_1.00_128_1/block_6_pad_1/Const"], "attr": {"Tpaddings": {"type": "DT_INT32"}, "T": {"type": "DT_FLOAT"}}}, {"name": "StatefulPartitionedCall/optimized_gesture_model_exp7_1/mobilenetv2_1.00_128_1/block_6_depthwise_1/depthwise", "op": "DepthwiseConv2dNative", "input": ["StatefulPartitionedCall/optimized_gesture_model_exp7_1/mobilenetv2_1.00_128_1/block_6_pad_1/Pad", "StatefulPartitionedCall/optimized_gesture_model_exp7_1/mobilenetv2_1.00_128_1/block_6_depthwise_1/depthwise/ReadVariableOp"], "attr": {"padding": {"s": "VkFMSUQ="}, "data_format": {"s": "TkhXQw=="}, "T": {"type": "DT_FLOAT"}, "explicit_paddings": {"list": {}}, "dilations": {"list": {"i": ["1", "1", "1", "1"]}}, "strides": {"list": {"i": ["1", "2", "2", "1"]}}}}, {"name": "StatefulPartitionedCall/optimized_gesture_model_exp7_1/mobilenetv2_1.00_128_1/block_6_depthwise_BN_1/batchnorm/mul_1", "op": "Mul", "input": ["StatefulPartitionedCall/optimized_gesture_model_exp7_1/mobilenetv2_1.00_128_1/block_6_depthwise_1/depthwise", "StatefulPartitionedCall/optimized_gesture_model_exp7_1/mobilenetv2_1.00_128_1/block_6_depthwise_BN_1/batchnorm/mul"], "attr": {"T": {"type": "DT_FLOAT"}}}, {"name": "StatefulPartitionedCall/optimized_gesture_model_exp7_1/mobilenetv2_1.00_128_1/block_6_depthwise_BN_1/batchnorm/add_1", "op": "AddV2", "input": ["StatefulPartitionedCall/optimized_gesture_model_exp7_1/mobilenetv2_1.00_128_1/block_6_depthwise_BN_1/batchnorm/mul_1", "StatefulPartitionedCall/optimized_gesture_model_exp7_1/mobilenetv2_1.00_128_1/block_6_depthwise_BN_1/batchnorm/sub"], "attr": {"T": {"type": "DT_FLOAT"}}}, {"name": "StatefulPartitionedCall/optimized_gesture_model_exp7_1/mobilenetv2_1.00_128_1/block_6_depthwise_relu_1/Relu6", "op": "Relu6", "input": ["StatefulPartitionedCall/optimized_gesture_model_exp7_1/mobilenetv2_1.00_128_1/block_6_depthwise_BN_1/batchnorm/add_1"], "attr": {"T": {"type": "DT_FLOAT"}}}, {"name": "StatefulPartitionedCall/optimized_gesture_model_exp7_1/mobilenetv2_1.00_128_1/block_6_project_BN_1/batchnorm/add_1", "op": "_FusedConv2D", "input": ["StatefulPartitionedCall/optimized_gesture_model_exp7_1/mobilenetv2_1.00_128_1/block_6_depthwise_relu_1/Relu6", "StatefulPartitionedCall/optimized_gesture_model_exp7_1/mobilenetv2_1.00_128_1/block_6_project_1/convolution/merged_input", "StatefulPartitionedCall/optimized_gesture_model_exp7_1/mobilenetv2_1.00_128_1/block_6_project_BN_1/batchnorm/sub"], "device": "/device:CPU:0", "attr": {"num_host_args": {"i": "0"}, "data_format": {"s": "TkhXQw=="}, "filter_format": {"s": "SFdJTw=="}, "strides": {"list": {"i": ["1", "1", "1", "1"]}}, "num_args": {"i": "1"}, "fused_ops": {"list": {"s": ["Qmlhc0FkZA=="]}}, "TArgs": {"list": {"type": ["DT_FLOAT"]}}, "padding": {"s": "U0FNRQ=="}, "use_cudnn_on_gpu": {"b": true}, "leakyrelu_alpha": {"f": 0.2}, "epsilon": {"f": 0.0}, "T": {"type": "DT_FLOAT"}, "explicit_paddings": {"list": {}}, "dilations": {"list": {"i": ["1", "1", "1", "1"]}}}}, {"name": "StatefulPartitionedCall/optimized_gesture_model_exp7_1/mobilenetv2_1.00_128_1/block_7_expand_relu_1/Relu6", "op": "_FusedConv2D", "input": ["StatefulPartitionedCall/optimized_gesture_model_exp7_1/mobilenetv2_1.00_128_1/block_6_project_BN_1/batchnorm/add_1", "StatefulPartitionedCall/optimized_gesture_model_exp7_1/mobilenetv2_1.00_128_1/block_7_expand_1/convolution/merged_input", "StatefulPartitionedCall/optimized_gesture_model_exp7_1/mobilenetv2_1.00_128_1/block_7_expand_BN_1/batchnorm/sub"], "device": "/device:CPU:0", "attr": {"num_host_args": {"i": "0"}, "data_format": {"s": "TkhXQw=="}, "filter_format": {"s": "SFdJTw=="}, "strides": {"list": {"i": ["1", "1", "1", "1"]}}, "num_args": {"i": "1"}, "fused_ops": {"list": {"s": ["Qmlhc0FkZA==", "UmVsdTY="]}}, "TArgs": {"list": {"type": ["DT_FLOAT"]}}, "padding": {"s": "U0FNRQ=="}, "use_cudnn_on_gpu": {"b": true}, "leakyrelu_alpha": {"f": 0.2}, "epsilon": {"f": 0.0}, "T": {"type": "DT_FLOAT"}, "explicit_paddings": {"list": {}}, "dilations": {"list": {"i": ["1", "1", "1", "1"]}}}}, {"name": "StatefulPartitionedCall/optimized_gesture_model_exp7_1/mobilenetv2_1.00_128_1/block_7_depthwise_1/depthwise", "op": "DepthwiseConv2dNative", "input": ["StatefulPartitionedCall/optimized_gesture_model_exp7_1/mobilenetv2_1.00_128_1/block_7_expand_relu_1/Relu6", "StatefulPartitionedCall/optimized_gesture_model_exp7_1/mobilenetv2_1.00_128_1/block_7_depthwise_1/depthwise/ReadVariableOp"], "attr": {"padding": {"s": "U0FNRQ=="}, "data_format": {"s": "TkhXQw=="}, "T": {"type": "DT_FLOAT"}, "explicit_paddings": {"list": {}}, "dilations": {"list": {"i": ["1", "1", "1", "1"]}}, "strides": {"list": {"i": ["1", "1", "1", "1"]}}}}, {"name": "StatefulPartitionedCall/optimized_gesture_model_exp7_1/mobilenetv2_1.00_128_1/block_7_depthwise_BN_1/batchnorm/mul_1", "op": "Mul", "input": ["StatefulPartitionedCall/optimized_gesture_model_exp7_1/mobilenetv2_1.00_128_1/block_7_depthwise_1/depthwise", "StatefulPartitionedCall/optimized_gesture_model_exp7_1/mobilenetv2_1.00_128_1/block_7_depthwise_BN_1/batchnorm/mul"], "attr": {"T": {"type": "DT_FLOAT"}}}, {"name": "StatefulPartitionedCall/optimized_gesture_model_exp7_1/mobilenetv2_1.00_128_1/block_7_depthwise_BN_1/batchnorm/add_1", "op": "AddV2", "input": ["StatefulPartitionedCall/optimized_gesture_model_exp7_1/mobilenetv2_1.00_128_1/block_7_depthwise_BN_1/batchnorm/mul_1", "StatefulPartitionedCall/optimized_gesture_model_exp7_1/mobilenetv2_1.00_128_1/block_7_depthwise_BN_1/batchnorm/sub"], "attr": {"T": {"type": "DT_FLOAT"}}}, {"name": "StatefulPartitionedCall/optimized_gesture_model_exp7_1/mobilenetv2_1.00_128_1/block_7_depthwise_relu_1/Relu6", "op": "Relu6", "input": ["StatefulPartitionedCall/optimized_gesture_model_exp7_1/mobilenetv2_1.00_128_1/block_7_depthwise_BN_1/batchnorm/add_1"], "attr": {"T": {"type": "DT_FLOAT"}}}, {"name": "StatefulPartitionedCall/optimized_gesture_model_exp7_1/mobilenetv2_1.00_128_1/block_7_project_BN_1/batchnorm/mul_1", "op": "Conv2D", "input": ["StatefulPartitionedCall/optimized_gesture_model_exp7_1/mobilenetv2_1.00_128_1/block_7_depthwise_relu_1/Relu6", "StatefulPartitionedCall/optimized_gesture_model_exp7_1/mobilenetv2_1.00_128_1/block_7_project_1/convolution/merged_input"], "device": "/device:CPU:0", "attr": {"padding": {"s": "U0FNRQ=="}, "data_format": {"s": "TkhXQw=="}, "use_cudnn_on_gpu": {"b": true}, "strides": {"list": {"i": ["1", "1", "1", "1"]}}, "T": {"type": "DT_FLOAT"}, "explicit_paddings": {"list": {}}, "dilations": {"list": {"i": ["1", "1", "1", "1"]}}}}, {"name": "StatefulPartitionedCall/optimized_gesture_model_exp7_1/mobilenetv2_1.00_128_1/block_7_add_1/ArithmeticOptimizer/AddOpsRewrite_Leaf_1_Add", "op": "AddN", "input": ["StatefulPartitionedCall/optimized_gesture_model_exp7_1/mobilenetv2_1.00_128_1/block_6_project_BN_1/batchnorm/add_1", "StatefulPartitionedCall/optimized_gesture_model_exp7_1/mobilenetv2_1.00_128_1/block_7_project_BN_1/batchnorm/mul_1"], "attr": {"N": {"i": "2"}, "T": {"type": "DT_FLOAT"}, "_grappler_ArithmeticOptimizer_AddOpsRewriteStage": {"b": true}}}, {"name": "StatefulPartitionedCall/optimized_gesture_model_exp7_1/mobilenetv2_1.00_128_1/block_7_add_1/ArithmeticOptimizer/AddOpsRewrite_Add", "op": "AddV2", "input": ["StatefulPartitionedCall/optimized_gesture_model_exp7_1/mobilenetv2_1.00_128_1/block_7_project_BN_1/batchnorm/sub", "StatefulPartitionedCall/optimized_gesture_model_exp7_1/mobilenetv2_1.00_128_1/block_7_add_1/ArithmeticOptimizer/AddOpsRewrite_Leaf_1_Add"], "attr": {"T": {"type": "DT_FLOAT"}, "_grappler_ArithmeticOptimizer_AddOpsRewriteStage": {"b": true}}}, {"name": "StatefulPartitionedCall/optimized_gesture_model_exp7_1/mobilenetv2_1.00_128_1/block_8_expand_relu_1/Relu6", "op": "_FusedConv2D", "input": ["StatefulPartitionedCall/optimized_gesture_model_exp7_1/mobilenetv2_1.00_128_1/block_7_add_1/ArithmeticOptimizer/AddOpsRewrite_Add", "StatefulPartitionedCall/optimized_gesture_model_exp7_1/mobilenetv2_1.00_128_1/block_8_expand_1/convolution/merged_input", "StatefulPartitionedCall/optimized_gesture_model_exp7_1/mobilenetv2_1.00_128_1/block_8_expand_BN_1/batchnorm/sub"], "device": "/device:CPU:0", "attr": {"num_host_args": {"i": "0"}, "data_format": {"s": "TkhXQw=="}, "filter_format": {"s": "SFdJTw=="}, "fused_ops": {"list": {"s": ["Qmlhc0FkZA==", "UmVsdTY="]}}, "num_args": {"i": "1"}, "strides": {"list": {"i": ["1", "1", "1", "1"]}}, "TArgs": {"list": {"type": ["DT_FLOAT"]}}, "padding": {"s": "U0FNRQ=="}, "use_cudnn_on_gpu": {"b": true}, "leakyrelu_alpha": {"f": 0.2}, "epsilon": {"f": 0.0}, "T": {"type": "DT_FLOAT"}, "explicit_paddings": {"list": {}}, "dilations": {"list": {"i": ["1", "1", "1", "1"]}}}}, {"name": "StatefulPartitionedCall/optimized_gesture_model_exp7_1/mobilenetv2_1.00_128_1/block_8_depthwise_1/depthwise", "op": "DepthwiseConv2dNative", "input": ["StatefulPartitionedCall/optimized_gesture_model_exp7_1/mobilenetv2_1.00_128_1/block_8_expand_relu_1/Relu6", "StatefulPartitionedCall/optimized_gesture_model_exp7_1/mobilenetv2_1.00_128_1/block_8_depthwise_1/depthwise/ReadVariableOp"], "attr": {"padding": {"s": "U0FNRQ=="}, "data_format": {"s": "TkhXQw=="}, "T": {"type": "DT_FLOAT"}, "explicit_paddings": {"list": {}}, "dilations": {"list": {"i": ["1", "1", "1", "1"]}}, "strides": {"list": {"i": ["1", "1", "1", "1"]}}}}, {"name": "StatefulPartitionedCall/optimized_gesture_model_exp7_1/mobilenetv2_1.00_128_1/block_8_depthwise_BN_1/batchnorm/mul_1", "op": "Mul", "input": ["StatefulPartitionedCall/optimized_gesture_model_exp7_1/mobilenetv2_1.00_128_1/block_8_depthwise_1/depthwise", "StatefulPartitionedCall/optimized_gesture_model_exp7_1/mobilenetv2_1.00_128_1/block_8_depthwise_BN_1/batchnorm/mul"], "attr": {"T": {"type": "DT_FLOAT"}}}, {"name": "StatefulPartitionedCall/optimized_gesture_model_exp7_1/mobilenetv2_1.00_128_1/block_8_depthwise_BN_1/batchnorm/add_1", "op": "AddV2", "input": ["StatefulPartitionedCall/optimized_gesture_model_exp7_1/mobilenetv2_1.00_128_1/block_8_depthwise_BN_1/batchnorm/mul_1", "StatefulPartitionedCall/optimized_gesture_model_exp7_1/mobilenetv2_1.00_128_1/block_8_depthwise_BN_1/batchnorm/sub"], "attr": {"T": {"type": "DT_FLOAT"}}}, {"name": "StatefulPartitionedCall/optimized_gesture_model_exp7_1/mobilenetv2_1.00_128_1/block_8_depthwise_relu_1/Relu6", "op": "Relu6", "input": ["StatefulPartitionedCall/optimized_gesture_model_exp7_1/mobilenetv2_1.00_128_1/block_8_depthwise_BN_1/batchnorm/add_1"], "attr": {"T": {"type": "DT_FLOAT"}}}, {"name": "StatefulPartitionedCall/optimized_gesture_model_exp7_1/mobilenetv2_1.00_128_1/block_8_project_BN_1/batchnorm/mul_1", "op": "Conv2D", "input": ["StatefulPartitionedCall/optimized_gesture_model_exp7_1/mobilenetv2_1.00_128_1/block_8_depthwise_relu_1/Relu6", "StatefulPartitionedCall/optimized_gesture_model_exp7_1/mobilenetv2_1.00_128_1/block_8_project_1/convolution/merged_input"], "device": "/device:CPU:0", "attr": {"padding": {"s": "U0FNRQ=="}, "data_format": {"s": "TkhXQw=="}, "strides": {"list": {"i": ["1", "1", "1", "1"]}}, "use_cudnn_on_gpu": {"b": true}, "T": {"type": "DT_FLOAT"}, "explicit_paddings": {"list": {}}, "dilations": {"list": {"i": ["1", "1", "1", "1"]}}}}, {"name": "StatefulPartitionedCall/optimized_gesture_model_exp7_1/mobilenetv2_1.00_128_1/block_8_add_1/ArithmeticOptimizer/AddOpsRewrite_Leaf_1_Add", "op": "AddN", "input": ["StatefulPartitionedCall/optimized_gesture_model_exp7_1/mobilenetv2_1.00_128_1/block_7_add_1/ArithmeticOptimizer/AddOpsRewrite_Add", "StatefulPartitionedCall/optimized_gesture_model_exp7_1/mobilenetv2_1.00_128_1/block_8_project_BN_1/batchnorm/mul_1"], "attr": {"N": {"i": "2"}, "T": {"type": "DT_FLOAT"}, "_grappler_ArithmeticOptimizer_AddOpsRewriteStage": {"b": true}}}, {"name": "StatefulPartitionedCall/optimized_gesture_model_exp7_1/mobilenetv2_1.00_128_1/block_8_add_1/ArithmeticOptimizer/AddOpsRewrite_Add", "op": "AddV2", "input": ["StatefulPartitionedCall/optimized_gesture_model_exp7_1/mobilenetv2_1.00_128_1/block_8_project_BN_1/batchnorm/sub", "StatefulPartitionedCall/optimized_gesture_model_exp7_1/mobilenetv2_1.00_128_1/block_8_add_1/ArithmeticOptimizer/AddOpsRewrite_Leaf_1_Add"], "attr": {"T": {"type": "DT_FLOAT"}, "_grappler_ArithmeticOptimizer_AddOpsRewriteStage": {"b": true}}}, {"name": "StatefulPartitionedCall/optimized_gesture_model_exp7_1/mobilenetv2_1.00_128_1/block_9_expand_relu_1/Relu6", "op": "_FusedConv2D", "input": ["StatefulPartitionedCall/optimized_gesture_model_exp7_1/mobilenetv2_1.00_128_1/block_8_add_1/ArithmeticOptimizer/AddOpsRewrite_Add", "StatefulPartitionedCall/optimized_gesture_model_exp7_1/mobilenetv2_1.00_128_1/block_9_expand_1/convolution/merged_input", "StatefulPartitionedCall/optimized_gesture_model_exp7_1/mobilenetv2_1.00_128_1/block_9_expand_BN_1/batchnorm/sub"], "device": "/device:CPU:0", "attr": {"num_host_args": {"i": "0"}, "data_format": {"s": "TkhXQw=="}, "filter_format": {"s": "SFdJTw=="}, "strides": {"list": {"i": ["1", "1", "1", "1"]}}, "num_args": {"i": "1"}, "fused_ops": {"list": {"s": ["Qmlhc0FkZA==", "UmVsdTY="]}}, "TArgs": {"list": {"type": ["DT_FLOAT"]}}, "padding": {"s": "U0FNRQ=="}, "use_cudnn_on_gpu": {"b": true}, "leakyrelu_alpha": {"f": 0.2}, "epsilon": {"f": 0.0}, "T": {"type": "DT_FLOAT"}, "explicit_paddings": {"list": {}}, "dilations": {"list": {"i": ["1", "1", "1", "1"]}}}}, {"name": "StatefulPartitionedCall/optimized_gesture_model_exp7_1/mobilenetv2_1.00_128_1/block_9_depthwise_1/depthwise", "op": "DepthwiseConv2dNative", "input": ["StatefulPartitionedCall/optimized_gesture_model_exp7_1/mobilenetv2_1.00_128_1/block_9_expand_relu_1/Relu6", "StatefulPartitionedCall/optimized_gesture_model_exp7_1/mobilenetv2_1.00_128_1/block_9_depthwise_1/depthwise/ReadVariableOp"], "attr": {"padding": {"s": "U0FNRQ=="}, "data_format": {"s": "TkhXQw=="}, "T": {"type": "DT_FLOAT"}, "explicit_paddings": {"list": {}}, "dilations": {"list": {"i": ["1", "1", "1", "1"]}}, "strides": {"list": {"i": ["1", "1", "1", "1"]}}}}, {"name": "StatefulPartitionedCall/optimized_gesture_model_exp7_1/mobilenetv2_1.00_128_1/block_9_depthwise_BN_1/batchnorm/mul_1", "op": "Mul", "input": ["StatefulPartitionedCall/optimized_gesture_model_exp7_1/mobilenetv2_1.00_128_1/block_9_depthwise_1/depthwise", "StatefulPartitionedCall/optimized_gesture_model_exp7_1/mobilenetv2_1.00_128_1/block_9_depthwise_BN_1/batchnorm/mul"], "attr": {"T": {"type": "DT_FLOAT"}}}, {"name": "StatefulPartitionedCall/optimized_gesture_model_exp7_1/mobilenetv2_1.00_128_1/block_9_depthwise_BN_1/batchnorm/add_1", "op": "AddV2", "input": ["StatefulPartitionedCall/optimized_gesture_model_exp7_1/mobilenetv2_1.00_128_1/block_9_depthwise_BN_1/batchnorm/mul_1", "StatefulPartitionedCall/optimized_gesture_model_exp7_1/mobilenetv2_1.00_128_1/block_9_depthwise_BN_1/batchnorm/sub"], "attr": {"T": {"type": "DT_FLOAT"}}}, {"name": "StatefulPartitionedCall/optimized_gesture_model_exp7_1/mobilenetv2_1.00_128_1/block_9_depthwise_relu_1/Relu6", "op": "Relu6", "input": ["StatefulPartitionedCall/optimized_gesture_model_exp7_1/mobilenetv2_1.00_128_1/block_9_depthwise_BN_1/batchnorm/add_1"], "attr": {"T": {"type": "DT_FLOAT"}}}, {"name": "StatefulPartitionedCall/optimized_gesture_model_exp7_1/mobilenetv2_1.00_128_1/block_9_project_BN_1/batchnorm/mul_1", "op": "Conv2D", "input": ["StatefulPartitionedCall/optimized_gesture_model_exp7_1/mobilenetv2_1.00_128_1/block_9_depthwise_relu_1/Relu6", "StatefulPartitionedCall/optimized_gesture_model_exp7_1/mobilenetv2_1.00_128_1/block_9_project_1/convolution/merged_input"], "device": "/device:CPU:0", "attr": {"padding": {"s": "U0FNRQ=="}, "data_format": {"s": "TkhXQw=="}, "use_cudnn_on_gpu": {"b": true}, "strides": {"list": {"i": ["1", "1", "1", "1"]}}, "T": {"type": "DT_FLOAT"}, "explicit_paddings": {"list": {}}, "dilations": {"list": {"i": ["1", "1", "1", "1"]}}}}, {"name": "StatefulPartitionedCall/optimized_gesture_model_exp7_1/mobilenetv2_1.00_128_1/block_9_add_1/ArithmeticOptimizer/AddOpsRewrite_Leaf_1_Add", "op": "AddN", "input": ["StatefulPartitionedCall/optimized_gesture_model_exp7_1/mobilenetv2_1.00_128_1/block_8_add_1/ArithmeticOptimizer/AddOpsRewrite_Add", "StatefulPartitionedCall/optimized_gesture_model_exp7_1/mobilenetv2_1.00_128_1/block_9_project_BN_1/batchnorm/mul_1"], "attr": {"N": {"i": "2"}, "T": {"type": "DT_FLOAT"}, "_grappler_ArithmeticOptimizer_AddOpsRewriteStage": {"b": true}}}, {"name": "StatefulPartitionedCall/optimized_gesture_model_exp7_1/mobilenetv2_1.00_128_1/block_9_add_1/ArithmeticOptimizer/AddOpsRewrite_Add", "op": "AddV2", "input": ["StatefulPartitionedCall/optimized_gesture_model_exp7_1/mobilenetv2_1.00_128_1/block_9_project_BN_1/batchnorm/sub", "StatefulPartitionedCall/optimized_gesture_model_exp7_1/mobilenetv2_1.00_128_1/block_9_add_1/ArithmeticOptimizer/AddOpsRewrite_Leaf_1_Add"], "attr": {"T": {"type": "DT_FLOAT"}, "_grappler_ArithmeticOptimizer_AddOpsRewriteStage": {"b": true}}}, {"name": "StatefulPartitionedCall/optimized_gesture_model_exp7_1/mobilenetv2_1.00_128_1/block_10_expand_relu_1/Relu6", "op": "_FusedConv2D", "input": ["StatefulPartitionedCall/optimized_gesture_model_exp7_1/mobilenetv2_1.00_128_1/block_9_add_1/ArithmeticOptimizer/AddOpsRewrite_Add", "StatefulPartitionedCall/optimized_gesture_model_exp7_1/mobilenetv2_1.00_128_1/block_10_expand_1/convolution/merged_input", "StatefulPartitionedCall/optimized_gesture_model_exp7_1/mobilenetv2_1.00_128_1/block_10_expand_BN_1/batchnorm/sub"], "device": "/device:CPU:0", "attr": {"num_host_args": {"i": "0"}, "data_format": {"s": "TkhXQw=="}, "filter_format": {"s": "SFdJTw=="}, "fused_ops": {"list": {"s": ["Qmlhc0FkZA==", "UmVsdTY="]}}, "num_args": {"i": "1"}, "strides": {"list": {"i": ["1", "1", "1", "1"]}}, "TArgs": {"list": {"type": ["DT_FLOAT"]}}, "padding": {"s": "U0FNRQ=="}, "use_cudnn_on_gpu": {"b": true}, "leakyrelu_alpha": {"f": 0.2}, "epsilon": {"f": 0.0}, "T": {"type": "DT_FLOAT"}, "explicit_paddings": {"list": {}}, "dilations": {"list": {"i": ["1", "1", "1", "1"]}}}}, {"name": "StatefulPartitionedCall/optimized_gesture_model_exp7_1/mobilenetv2_1.00_128_1/block_10_depthwise_1/depthwise", "op": "DepthwiseConv2dNative", "input": ["StatefulPartitionedCall/optimized_gesture_model_exp7_1/mobilenetv2_1.00_128_1/block_10_expand_relu_1/Relu6", "StatefulPartitionedCall/optimized_gesture_model_exp7_1/mobilenetv2_1.00_128_1/block_10_depthwise_1/depthwise/ReadVariableOp"], "attr": {"padding": {"s": "U0FNRQ=="}, "data_format": {"s": "TkhXQw=="}, "T": {"type": "DT_FLOAT"}, "explicit_paddings": {"list": {}}, "dilations": {"list": {"i": ["1", "1", "1", "1"]}}, "strides": {"list": {"i": ["1", "1", "1", "1"]}}}}, {"name": "StatefulPartitionedCall/optimized_gesture_model_exp7_1/mobilenetv2_1.00_128_1/block_10_depthwise_BN_1/batchnorm/mul_1", "op": "Mul", "input": ["StatefulPartitionedCall/optimized_gesture_model_exp7_1/mobilenetv2_1.00_128_1/block_10_depthwise_1/depthwise", "StatefulPartitionedCall/optimized_gesture_model_exp7_1/mobilenetv2_1.00_128_1/block_10_depthwise_BN_1/batchnorm/mul"], "attr": {"T": {"type": "DT_FLOAT"}}}, {"name": "StatefulPartitionedCall/optimized_gesture_model_exp7_1/mobilenetv2_1.00_128_1/block_10_depthwise_BN_1/batchnorm/add_1", "op": "AddV2", "input": ["StatefulPartitionedCall/optimized_gesture_model_exp7_1/mobilenetv2_1.00_128_1/block_10_depthwise_BN_1/batchnorm/mul_1", "StatefulPartitionedCall/optimized_gesture_model_exp7_1/mobilenetv2_1.00_128_1/block_10_depthwise_BN_1/batchnorm/sub"], "attr": {"T": {"type": "DT_FLOAT"}}}, {"name": "StatefulPartitionedCall/optimized_gesture_model_exp7_1/mobilenetv2_1.00_128_1/block_10_depthwise_relu_1/Relu6", "op": "Relu6", "input": ["StatefulPartitionedCall/optimized_gesture_model_exp7_1/mobilenetv2_1.00_128_1/block_10_depthwise_BN_1/batchnorm/add_1"], "attr": {"T": {"type": "DT_FLOAT"}}}, {"name": "StatefulPartitionedCall/optimized_gesture_model_exp7_1/mobilenetv2_1.00_128_1/block_10_project_BN_1/batchnorm/add_1", "op": "_FusedConv2D", "input": ["StatefulPartitionedCall/optimized_gesture_model_exp7_1/mobilenetv2_1.00_128_1/block_10_depthwise_relu_1/Relu6", "StatefulPartitionedCall/optimized_gesture_model_exp7_1/mobilenetv2_1.00_128_1/block_10_project_1/convolution/merged_input", "StatefulPartitionedCall/optimized_gesture_model_exp7_1/mobilenetv2_1.00_128_1/block_10_project_BN_1/batchnorm/sub"], "device": "/device:CPU:0", "attr": {"num_host_args": {"i": "0"}, "data_format": {"s": "TkhXQw=="}, "filter_format": {"s": "SFdJTw=="}, "strides": {"list": {"i": ["1", "1", "1", "1"]}}, "num_args": {"i": "1"}, "fused_ops": {"list": {"s": ["Qmlhc0FkZA=="]}}, "TArgs": {"list": {"type": ["DT_FLOAT"]}}, "padding": {"s": "U0FNRQ=="}, "use_cudnn_on_gpu": {"b": true}, "leakyrelu_alpha": {"f": 0.2}, "epsilon": {"f": 0.0}, "T": {"type": "DT_FLOAT"}, "explicit_paddings": {"list": {}}, "dilations": {"list": {"i": ["1", "1", "1", "1"]}}}}, {"name": "StatefulPartitionedCall/optimized_gesture_model_exp7_1/mobilenetv2_1.00_128_1/block_11_expand_relu_1/Relu6", "op": "_FusedConv2D", "input": ["StatefulPartitionedCall/optimized_gesture_model_exp7_1/mobilenetv2_1.00_128_1/block_10_project_BN_1/batchnorm/add_1", "StatefulPartitionedCall/optimized_gesture_model_exp7_1/mobilenetv2_1.00_128_1/block_11_expand_1/convolution/merged_input", "StatefulPartitionedCall/optimized_gesture_model_exp7_1/mobilenetv2_1.00_128_1/block_11_expand_BN_1/batchnorm/sub"], "device": "/device:CPU:0", "attr": {"num_host_args": {"i": "0"}, "data_format": {"s": "TkhXQw=="}, "filter_format": {"s": "SFdJTw=="}, "strides": {"list": {"i": ["1", "1", "1", "1"]}}, "num_args": {"i": "1"}, "fused_ops": {"list": {"s": ["Qmlhc0FkZA==", "UmVsdTY="]}}, "TArgs": {"list": {"type": ["DT_FLOAT"]}}, "padding": {"s": "U0FNRQ=="}, "use_cudnn_on_gpu": {"b": true}, "leakyrelu_alpha": {"f": 0.2}, "epsilon": {"f": 0.0}, "T": {"type": "DT_FLOAT"}, "explicit_paddings": {"list": {}}, "dilations": {"list": {"i": ["1", "1", "1", "1"]}}}}, {"name": "StatefulPartitionedCall/optimized_gesture_model_exp7_1/mobilenetv2_1.00_128_1/block_11_depthwise_1/depthwise", "op": "DepthwiseConv2dNative", "input": ["StatefulPartitionedCall/optimized_gesture_model_exp7_1/mobilenetv2_1.00_128_1/block_11_expand_relu_1/Relu6", "StatefulPartitionedCall/optimized_gesture_model_exp7_1/mobilenetv2_1.00_128_1/block_11_depthwise_1/depthwise/ReadVariableOp"], "attr": {"padding": {"s": "U0FNRQ=="}, "data_format": {"s": "TkhXQw=="}, "T": {"type": "DT_FLOAT"}, "explicit_paddings": {"list": {}}, "dilations": {"list": {"i": ["1", "1", "1", "1"]}}, "strides": {"list": {"i": ["1", "1", "1", "1"]}}}}, {"name": "StatefulPartitionedCall/optimized_gesture_model_exp7_1/mobilenetv2_1.00_128_1/block_11_depthwise_BN_1/batchnorm/mul_1", "op": "Mul", "input": ["StatefulPartitionedCall/optimized_gesture_model_exp7_1/mobilenetv2_1.00_128_1/block_11_depthwise_1/depthwise", "StatefulPartitionedCall/optimized_gesture_model_exp7_1/mobilenetv2_1.00_128_1/block_11_depthwise_BN_1/batchnorm/mul"], "attr": {"T": {"type": "DT_FLOAT"}}}, {"name": "StatefulPartitionedCall/optimized_gesture_model_exp7_1/mobilenetv2_1.00_128_1/block_11_depthwise_BN_1/batchnorm/add_1", "op": "AddV2", "input": ["StatefulPartitionedCall/optimized_gesture_model_exp7_1/mobilenetv2_1.00_128_1/block_11_depthwise_BN_1/batchnorm/mul_1", "StatefulPartitionedCall/optimized_gesture_model_exp7_1/mobilenetv2_1.00_128_1/block_11_depthwise_BN_1/batchnorm/sub"], "attr": {"T": {"type": "DT_FLOAT"}}}, {"name": "StatefulPartitionedCall/optimized_gesture_model_exp7_1/mobilenetv2_1.00_128_1/block_11_depthwise_relu_1/Relu6", "op": "Relu6", "input": ["StatefulPartitionedCall/optimized_gesture_model_exp7_1/mobilenetv2_1.00_128_1/block_11_depthwise_BN_1/batchnorm/add_1"], "attr": {"T": {"type": "DT_FLOAT"}}}, {"name": "StatefulPartitionedCall/optimized_gesture_model_exp7_1/mobilenetv2_1.00_128_1/block_11_project_BN_1/batchnorm/mul_1", "op": "Conv2D", "input": ["StatefulPartitionedCall/optimized_gesture_model_exp7_1/mobilenetv2_1.00_128_1/block_11_depthwise_relu_1/Relu6", "StatefulPartitionedCall/optimized_gesture_model_exp7_1/mobilenetv2_1.00_128_1/block_11_project_1/convolution/merged_input"], "device": "/device:CPU:0", "attr": {"padding": {"s": "U0FNRQ=="}, "data_format": {"s": "TkhXQw=="}, "strides": {"list": {"i": ["1", "1", "1", "1"]}}, "use_cudnn_on_gpu": {"b": true}, "T": {"type": "DT_FLOAT"}, "explicit_paddings": {"list": {}}, "dilations": {"list": {"i": ["1", "1", "1", "1"]}}}}, {"name": "StatefulPartitionedCall/optimized_gesture_model_exp7_1/mobilenetv2_1.00_128_1/block_11_add_1/ArithmeticOptimizer/AddOpsRewrite_Leaf_1_Add", "op": "AddN", "input": ["StatefulPartitionedCall/optimized_gesture_model_exp7_1/mobilenetv2_1.00_128_1/block_10_project_BN_1/batchnorm/add_1", "StatefulPartitionedCall/optimized_gesture_model_exp7_1/mobilenetv2_1.00_128_1/block_11_project_BN_1/batchnorm/mul_1"], "attr": {"N": {"i": "2"}, "T": {"type": "DT_FLOAT"}, "_grappler_ArithmeticOptimizer_AddOpsRewriteStage": {"b": true}}}, {"name": "StatefulPartitionedCall/optimized_gesture_model_exp7_1/mobilenetv2_1.00_128_1/block_11_add_1/ArithmeticOptimizer/AddOpsRewrite_Add", "op": "AddV2", "input": ["StatefulPartitionedCall/optimized_gesture_model_exp7_1/mobilenetv2_1.00_128_1/block_11_project_BN_1/batchnorm/sub", "StatefulPartitionedCall/optimized_gesture_model_exp7_1/mobilenetv2_1.00_128_1/block_11_add_1/ArithmeticOptimizer/AddOpsRewrite_Leaf_1_Add"], "attr": {"T": {"type": "DT_FLOAT"}, "_grappler_ArithmeticOptimizer_AddOpsRewriteStage": {"b": true}}}, {"name": "StatefulPartitionedCall/optimized_gesture_model_exp7_1/mobilenetv2_1.00_128_1/block_12_expand_relu_1/Relu6", "op": "_FusedConv2D", "input": ["StatefulPartitionedCall/optimized_gesture_model_exp7_1/mobilenetv2_1.00_128_1/block_11_add_1/ArithmeticOptimizer/AddOpsRewrite_Add", "StatefulPartitionedCall/optimized_gesture_model_exp7_1/mobilenetv2_1.00_128_1/block_12_expand_1/convolution/merged_input", "StatefulPartitionedCall/optimized_gesture_model_exp7_1/mobilenetv2_1.00_128_1/block_12_expand_BN_1/batchnorm/sub"], "device": "/device:CPU:0", "attr": {"num_host_args": {"i": "0"}, "data_format": {"s": "TkhXQw=="}, "filter_format": {"s": "SFdJTw=="}, "strides": {"list": {"i": ["1", "1", "1", "1"]}}, "num_args": {"i": "1"}, "fused_ops": {"list": {"s": ["Qmlhc0FkZA==", "UmVsdTY="]}}, "TArgs": {"list": {"type": ["DT_FLOAT"]}}, "padding": {"s": "U0FNRQ=="}, "use_cudnn_on_gpu": {"b": true}, "leakyrelu_alpha": {"f": 0.2}, "epsilon": {"f": 0.0}, "T": {"type": "DT_FLOAT"}, "explicit_paddings": {"list": {}}, "dilations": {"list": {"i": ["1", "1", "1", "1"]}}}}, {"name": "StatefulPartitionedCall/optimized_gesture_model_exp7_1/mobilenetv2_1.00_128_1/block_12_depthwise_1/depthwise", "op": "DepthwiseConv2dNative", "input": ["StatefulPartitionedCall/optimized_gesture_model_exp7_1/mobilenetv2_1.00_128_1/block_12_expand_relu_1/Relu6", "StatefulPartitionedCall/optimized_gesture_model_exp7_1/mobilenetv2_1.00_128_1/block_12_depthwise_1/depthwise/ReadVariableOp"], "attr": {"padding": {"s": "U0FNRQ=="}, "data_format": {"s": "TkhXQw=="}, "T": {"type": "DT_FLOAT"}, "explicit_paddings": {"list": {}}, "dilations": {"list": {"i": ["1", "1", "1", "1"]}}, "strides": {"list": {"i": ["1", "1", "1", "1"]}}}}, {"name": "StatefulPartitionedCall/optimized_gesture_model_exp7_1/mobilenetv2_1.00_128_1/block_12_depthwise_BN_1/batchnorm/mul_1", "op": "Mul", "input": ["StatefulPartitionedCall/optimized_gesture_model_exp7_1/mobilenetv2_1.00_128_1/block_12_depthwise_1/depthwise", "StatefulPartitionedCall/optimized_gesture_model_exp7_1/mobilenetv2_1.00_128_1/block_12_depthwise_BN_1/batchnorm/mul"], "attr": {"T": {"type": "DT_FLOAT"}}}, {"name": "StatefulPartitionedCall/optimized_gesture_model_exp7_1/mobilenetv2_1.00_128_1/block_12_depthwise_BN_1/batchnorm/add_1", "op": "AddV2", "input": ["StatefulPartitionedCall/optimized_gesture_model_exp7_1/mobilenetv2_1.00_128_1/block_12_depthwise_BN_1/batchnorm/mul_1", "StatefulPartitionedCall/optimized_gesture_model_exp7_1/mobilenetv2_1.00_128_1/block_12_depthwise_BN_1/batchnorm/sub"], "attr": {"T": {"type": "DT_FLOAT"}}}, {"name": "StatefulPartitionedCall/optimized_gesture_model_exp7_1/mobilenetv2_1.00_128_1/block_12_depthwise_relu_1/Relu6", "op": "Relu6", "input": ["StatefulPartitionedCall/optimized_gesture_model_exp7_1/mobilenetv2_1.00_128_1/block_12_depthwise_BN_1/batchnorm/add_1"], "attr": {"T": {"type": "DT_FLOAT"}}}, {"name": "StatefulPartitionedCall/optimized_gesture_model_exp7_1/mobilenetv2_1.00_128_1/block_12_project_BN_1/batchnorm/mul_1", "op": "Conv2D", "input": ["StatefulPartitionedCall/optimized_gesture_model_exp7_1/mobilenetv2_1.00_128_1/block_12_depthwise_relu_1/Relu6", "StatefulPartitionedCall/optimized_gesture_model_exp7_1/mobilenetv2_1.00_128_1/block_12_project_1/convolution/merged_input"], "device": "/device:CPU:0", "attr": {"padding": {"s": "U0FNRQ=="}, "data_format": {"s": "TkhXQw=="}, "strides": {"list": {"i": ["1", "1", "1", "1"]}}, "use_cudnn_on_gpu": {"b": true}, "T": {"type": "DT_FLOAT"}, "explicit_paddings": {"list": {}}, "dilations": {"list": {"i": ["1", "1", "1", "1"]}}}}, {"name": "StatefulPartitionedCall/optimized_gesture_model_exp7_1/mobilenetv2_1.00_128_1/block_12_add_1/ArithmeticOptimizer/AddOpsRewrite_Leaf_1_Add", "op": "AddN", "input": ["StatefulPartitionedCall/optimized_gesture_model_exp7_1/mobilenetv2_1.00_128_1/block_11_add_1/ArithmeticOptimizer/AddOpsRewrite_Add", "StatefulPartitionedCall/optimized_gesture_model_exp7_1/mobilenetv2_1.00_128_1/block_12_project_BN_1/batchnorm/mul_1"], "attr": {"N": {"i": "2"}, "T": {"type": "DT_FLOAT"}, "_grappler_ArithmeticOptimizer_AddOpsRewriteStage": {"b": true}}}, {"name": "StatefulPartitionedCall/optimized_gesture_model_exp7_1/mobilenetv2_1.00_128_1/block_12_add_1/ArithmeticOptimizer/AddOpsRewrite_Add", "op": "AddV2", "input": ["StatefulPartitionedCall/optimized_gesture_model_exp7_1/mobilenetv2_1.00_128_1/block_12_project_BN_1/batchnorm/sub", "StatefulPartitionedCall/optimized_gesture_model_exp7_1/mobilenetv2_1.00_128_1/block_12_add_1/ArithmeticOptimizer/AddOpsRewrite_Leaf_1_Add"], "attr": {"T": {"type": "DT_FLOAT"}, "_grappler_ArithmeticOptimizer_AddOpsRewriteStage": {"b": true}}}, {"name": "StatefulPartitionedCall/optimized_gesture_model_exp7_1/mobilenetv2_1.00_128_1/block_13_expand_relu_1/Relu6", "op": "_FusedConv2D", "input": ["StatefulPartitionedCall/optimized_gesture_model_exp7_1/mobilenetv2_1.00_128_1/block_12_add_1/ArithmeticOptimizer/AddOpsRewrite_Add", "StatefulPartitionedCall/optimized_gesture_model_exp7_1/mobilenetv2_1.00_128_1/block_13_expand_1/convolution/merged_input", "StatefulPartitionedCall/optimized_gesture_model_exp7_1/mobilenetv2_1.00_128_1/block_13_expand_BN_1/batchnorm/sub"], "device": "/device:CPU:0", "attr": {"num_host_args": {"i": "0"}, "data_format": {"s": "TkhXQw=="}, "filter_format": {"s": "SFdJTw=="}, "fused_ops": {"list": {"s": ["Qmlhc0FkZA==", "UmVsdTY="]}}, "num_args": {"i": "1"}, "strides": {"list": {"i": ["1", "1", "1", "1"]}}, "TArgs": {"list": {"type": ["DT_FLOAT"]}}, "padding": {"s": "U0FNRQ=="}, "use_cudnn_on_gpu": {"b": true}, "leakyrelu_alpha": {"f": 0.2}, "epsilon": {"f": 0.0}, "T": {"type": "DT_FLOAT"}, "explicit_paddings": {"list": {}}, "dilations": {"list": {"i": ["1", "1", "1", "1"]}}}}, {"name": "StatefulPartitionedCall/optimized_gesture_model_exp7_1/mobilenetv2_1.00_128_1/block_13_pad_1/Pad", "op": "Pad", "input": ["StatefulPartitionedCall/optimized_gesture_model_exp7_1/mobilenetv2_1.00_128_1/block_13_expand_relu_1/Relu6", "StatefulPartitionedCall/optimized_gesture_model_exp7_1/mobilenetv2_1.00_128_1/block_13_pad_1/Const"], "attr": {"Tpaddings": {"type": "DT_INT32"}, "T": {"type": "DT_FLOAT"}}}, {"name": "StatefulPartitionedCall/optimized_gesture_model_exp7_1/mobilenetv2_1.00_128_1/block_13_depthwise_1/depthwise", "op": "DepthwiseConv2dNative", "input": ["StatefulPartitionedCall/optimized_gesture_model_exp7_1/mobilenetv2_1.00_128_1/block_13_pad_1/Pad", "StatefulPartitionedCall/optimized_gesture_model_exp7_1/mobilenetv2_1.00_128_1/block_13_depthwise_1/depthwise/ReadVariableOp"], "attr": {"padding": {"s": "VkFMSUQ="}, "data_format": {"s": "TkhXQw=="}, "T": {"type": "DT_FLOAT"}, "explicit_paddings": {"list": {}}, "dilations": {"list": {"i": ["1", "1", "1", "1"]}}, "strides": {"list": {"i": ["1", "2", "2", "1"]}}}}, {"name": "StatefulPartitionedCall/optimized_gesture_model_exp7_1/mobilenetv2_1.00_128_1/block_13_depthwise_BN_1/batchnorm/mul_1", "op": "Mul", "input": ["StatefulPartitionedCall/optimized_gesture_model_exp7_1/mobilenetv2_1.00_128_1/block_13_depthwise_1/depthwise", "StatefulPartitionedCall/optimized_gesture_model_exp7_1/mobilenetv2_1.00_128_1/block_13_depthwise_BN_1/batchnorm/mul"], "attr": {"T": {"type": "DT_FLOAT"}}}, {"name": "StatefulPartitionedCall/optimized_gesture_model_exp7_1/mobilenetv2_1.00_128_1/block_13_depthwise_BN_1/batchnorm/add_1", "op": "AddV2", "input": ["StatefulPartitionedCall/optimized_gesture_model_exp7_1/mobilenetv2_1.00_128_1/block_13_depthwise_BN_1/batchnorm/mul_1", "StatefulPartitionedCall/optimized_gesture_model_exp7_1/mobilenetv2_1.00_128_1/block_13_depthwise_BN_1/batchnorm/sub"], "attr": {"T": {"type": "DT_FLOAT"}}}, {"name": "StatefulPartitionedCall/optimized_gesture_model_exp7_1/mobilenetv2_1.00_128_1/block_13_depthwise_relu_1/Relu6", "op": "Relu6", "input": ["StatefulPartitionedCall/optimized_gesture_model_exp7_1/mobilenetv2_1.00_128_1/block_13_depthwise_BN_1/batchnorm/add_1"], "attr": {"T": {"type": "DT_FLOAT"}}}, {"name": "StatefulPartitionedCall/optimized_gesture_model_exp7_1/mobilenetv2_1.00_128_1/block_13_project_BN_1/batchnorm/add_1", "op": "_FusedConv2D", "input": ["StatefulPartitionedCall/optimized_gesture_model_exp7_1/mobilenetv2_1.00_128_1/block_13_depthwise_relu_1/Relu6", "StatefulPartitionedCall/optimized_gesture_model_exp7_1/mobilenetv2_1.00_128_1/block_13_project_1/convolution/merged_input", "StatefulPartitionedCall/optimized_gesture_model_exp7_1/mobilenetv2_1.00_128_1/block_13_project_BN_1/batchnorm/sub"], "device": "/device:CPU:0", "attr": {"num_host_args": {"i": "0"}, "data_format": {"s": "TkhXQw=="}, "filter_format": {"s": "SFdJTw=="}, "strides": {"list": {"i": ["1", "1", "1", "1"]}}, "num_args": {"i": "1"}, "fused_ops": {"list": {"s": ["Qmlhc0FkZA=="]}}, "TArgs": {"list": {"type": ["DT_FLOAT"]}}, "padding": {"s": "U0FNRQ=="}, "use_cudnn_on_gpu": {"b": true}, "leakyrelu_alpha": {"f": 0.2}, "epsilon": {"f": 0.0}, "T": {"type": "DT_FLOAT"}, "explicit_paddings": {"list": {}}, "dilations": {"list": {"i": ["1", "1", "1", "1"]}}}}, {"name": "StatefulPartitionedCall/optimized_gesture_model_exp7_1/mobilenetv2_1.00_128_1/block_14_expand_relu_1/Relu6", "op": "_FusedConv2D", "input": ["StatefulPartitionedCall/optimized_gesture_model_exp7_1/mobilenetv2_1.00_128_1/block_13_project_BN_1/batchnorm/add_1", "StatefulPartitionedCall/optimized_gesture_model_exp7_1/mobilenetv2_1.00_128_1/block_14_expand_1/convolution/merged_input", "StatefulPartitionedCall/optimized_gesture_model_exp7_1/mobilenetv2_1.00_128_1/block_14_expand_BN_1/batchnorm/sub"], "device": "/device:CPU:0", "attr": {"num_host_args": {"i": "0"}, "data_format": {"s": "TkhXQw=="}, "filter_format": {"s": "SFdJTw=="}, "fused_ops": {"list": {"s": ["Qmlhc0FkZA==", "UmVsdTY="]}}, "num_args": {"i": "1"}, "strides": {"list": {"i": ["1", "1", "1", "1"]}}, "TArgs": {"list": {"type": ["DT_FLOAT"]}}, "padding": {"s": "U0FNRQ=="}, "use_cudnn_on_gpu": {"b": true}, "leakyrelu_alpha": {"f": 0.2}, "epsilon": {"f": 0.0}, "T": {"type": "DT_FLOAT"}, "explicit_paddings": {"list": {}}, "dilations": {"list": {"i": ["1", "1", "1", "1"]}}}}, {"name": "StatefulPartitionedCall/optimized_gesture_model_exp7_1/mobilenetv2_1.00_128_1/block_14_depthwise_1/depthwise", "op": "DepthwiseConv2dNative", "input": ["StatefulPartitionedCall/optimized_gesture_model_exp7_1/mobilenetv2_1.00_128_1/block_14_expand_relu_1/Relu6", "StatefulPartitionedCall/optimized_gesture_model_exp7_1/mobilenetv2_1.00_128_1/block_14_depthwise_1/depthwise/ReadVariableOp"], "attr": {"padding": {"s": "U0FNRQ=="}, "data_format": {"s": "TkhXQw=="}, "T": {"type": "DT_FLOAT"}, "explicit_paddings": {"list": {}}, "dilations": {"list": {"i": ["1", "1", "1", "1"]}}, "strides": {"list": {"i": ["1", "1", "1", "1"]}}}}, {"name": "StatefulPartitionedCall/optimized_gesture_model_exp7_1/mobilenetv2_1.00_128_1/block_14_depthwise_BN_1/batchnorm/mul_1", "op": "Mul", "input": ["StatefulPartitionedCall/optimized_gesture_model_exp7_1/mobilenetv2_1.00_128_1/block_14_depthwise_1/depthwise", "StatefulPartitionedCall/optimized_gesture_model_exp7_1/mobilenetv2_1.00_128_1/block_14_depthwise_BN_1/batchnorm/mul"], "attr": {"T": {"type": "DT_FLOAT"}}}, {"name": "StatefulPartitionedCall/optimized_gesture_model_exp7_1/mobilenetv2_1.00_128_1/block_14_depthwise_BN_1/batchnorm/add_1", "op": "AddV2", "input": ["StatefulPartitionedCall/optimized_gesture_model_exp7_1/mobilenetv2_1.00_128_1/block_14_depthwise_BN_1/batchnorm/mul_1", "StatefulPartitionedCall/optimized_gesture_model_exp7_1/mobilenetv2_1.00_128_1/block_14_depthwise_BN_1/batchnorm/sub"], "attr": {"T": {"type": "DT_FLOAT"}}}, {"name": "StatefulPartitionedCall/optimized_gesture_model_exp7_1/mobilenetv2_1.00_128_1/block_14_depthwise_relu_1/Relu6", "op": "Relu6", "input": ["StatefulPartitionedCall/optimized_gesture_model_exp7_1/mobilenetv2_1.00_128_1/block_14_depthwise_BN_1/batchnorm/add_1"], "attr": {"T": {"type": "DT_FLOAT"}}}, {"name": "StatefulPartitionedCall/optimized_gesture_model_exp7_1/mobilenetv2_1.00_128_1/block_14_project_BN_1/batchnorm/mul_1", "op": "Conv2D", "input": ["StatefulPartitionedCall/optimized_gesture_model_exp7_1/mobilenetv2_1.00_128_1/block_14_depthwise_relu_1/Relu6", "StatefulPartitionedCall/optimized_gesture_model_exp7_1/mobilenetv2_1.00_128_1/block_14_project_1/convolution/merged_input"], "device": "/device:CPU:0", "attr": {"padding": {"s": "U0FNRQ=="}, "data_format": {"s": "TkhXQw=="}, "use_cudnn_on_gpu": {"b": true}, "strides": {"list": {"i": ["1", "1", "1", "1"]}}, "T": {"type": "DT_FLOAT"}, "explicit_paddings": {"list": {}}, "dilations": {"list": {"i": ["1", "1", "1", "1"]}}}}, {"name": "StatefulPartitionedCall/optimized_gesture_model_exp7_1/mobilenetv2_1.00_128_1/block_14_add_1/ArithmeticOptimizer/AddOpsRewrite_Leaf_1_Add", "op": "AddN", "input": ["StatefulPartitionedCall/optimized_gesture_model_exp7_1/mobilenetv2_1.00_128_1/block_13_project_BN_1/batchnorm/add_1", "StatefulPartitionedCall/optimized_gesture_model_exp7_1/mobilenetv2_1.00_128_1/block_14_project_BN_1/batchnorm/mul_1"], "attr": {"N": {"i": "2"}, "T": {"type": "DT_FLOAT"}, "_grappler_ArithmeticOptimizer_AddOpsRewriteStage": {"b": true}}}, {"name": "StatefulPartitionedCall/optimized_gesture_model_exp7_1/mobilenetv2_1.00_128_1/block_14_add_1/ArithmeticOptimizer/AddOpsRewrite_Add", "op": "AddV2", "input": ["StatefulPartitionedCall/optimized_gesture_model_exp7_1/mobilenetv2_1.00_128_1/block_14_project_BN_1/batchnorm/sub", "StatefulPartitionedCall/optimized_gesture_model_exp7_1/mobilenetv2_1.00_128_1/block_14_add_1/ArithmeticOptimizer/AddOpsRewrite_Leaf_1_Add"], "attr": {"T": {"type": "DT_FLOAT"}, "_grappler_ArithmeticOptimizer_AddOpsRewriteStage": {"b": true}}}, {"name": "StatefulPartitionedCall/optimized_gesture_model_exp7_1/mobilenetv2_1.00_128_1/block_15_expand_relu_1/Relu6", "op": "_FusedConv2D", "input": ["StatefulPartitionedCall/optimized_gesture_model_exp7_1/mobilenetv2_1.00_128_1/block_14_add_1/ArithmeticOptimizer/AddOpsRewrite_Add", "StatefulPartitionedCall/optimized_gesture_model_exp7_1/mobilenetv2_1.00_128_1/block_15_expand_1/convolution/merged_input", "StatefulPartitionedCall/optimized_gesture_model_exp7_1/mobilenetv2_1.00_128_1/block_15_expand_BN_1/batchnorm/sub"], "device": "/device:CPU:0", "attr": {"num_host_args": {"i": "0"}, "data_format": {"s": "TkhXQw=="}, "filter_format": {"s": "SFdJTw=="}, "fused_ops": {"list": {"s": ["Qmlhc0FkZA==", "UmVsdTY="]}}, "num_args": {"i": "1"}, "strides": {"list": {"i": ["1", "1", "1", "1"]}}, "TArgs": {"list": {"type": ["DT_FLOAT"]}}, "padding": {"s": "U0FNRQ=="}, "use_cudnn_on_gpu": {"b": true}, "leakyrelu_alpha": {"f": 0.2}, "epsilon": {"f": 0.0}, "T": {"type": "DT_FLOAT"}, "explicit_paddings": {"list": {}}, "dilations": {"list": {"i": ["1", "1", "1", "1"]}}}}, {"name": "StatefulPartitionedCall/optimized_gesture_model_exp7_1/mobilenetv2_1.00_128_1/block_15_depthwise_1/depthwise", "op": "DepthwiseConv2dNative", "input": ["StatefulPartitionedCall/optimized_gesture_model_exp7_1/mobilenetv2_1.00_128_1/block_15_expand_relu_1/Relu6", "StatefulPartitionedCall/optimized_gesture_model_exp7_1/mobilenetv2_1.00_128_1/block_15_depthwise_1/depthwise/ReadVariableOp"], "attr": {"padding": {"s": "U0FNRQ=="}, "data_format": {"s": "TkhXQw=="}, "T": {"type": "DT_FLOAT"}, "explicit_paddings": {"list": {}}, "dilations": {"list": {"i": ["1", "1", "1", "1"]}}, "strides": {"list": {"i": ["1", "1", "1", "1"]}}}}, {"name": "StatefulPartitionedCall/optimized_gesture_model_exp7_1/mobilenetv2_1.00_128_1/block_15_depthwise_BN_1/batchnorm/mul_1", "op": "Mul", "input": ["StatefulPartitionedCall/optimized_gesture_model_exp7_1/mobilenetv2_1.00_128_1/block_15_depthwise_1/depthwise", "StatefulPartitionedCall/optimized_gesture_model_exp7_1/mobilenetv2_1.00_128_1/block_15_depthwise_BN_1/batchnorm/mul"], "attr": {"T": {"type": "DT_FLOAT"}}}, {"name": "StatefulPartitionedCall/optimized_gesture_model_exp7_1/mobilenetv2_1.00_128_1/block_15_depthwise_BN_1/batchnorm/add_1", "op": "AddV2", "input": ["StatefulPartitionedCall/optimized_gesture_model_exp7_1/mobilenetv2_1.00_128_1/block_15_depthwise_BN_1/batchnorm/mul_1", "StatefulPartitionedCall/optimized_gesture_model_exp7_1/mobilenetv2_1.00_128_1/block_15_depthwise_BN_1/batchnorm/sub"], "attr": {"T": {"type": "DT_FLOAT"}}}, {"name": "StatefulPartitionedCall/optimized_gesture_model_exp7_1/mobilenetv2_1.00_128_1/block_15_depthwise_relu_1/Relu6", "op": "Relu6", "input": ["StatefulPartitionedCall/optimized_gesture_model_exp7_1/mobilenetv2_1.00_128_1/block_15_depthwise_BN_1/batchnorm/add_1"], "attr": {"T": {"type": "DT_FLOAT"}}}, {"name": "StatefulPartitionedCall/optimized_gesture_model_exp7_1/mobilenetv2_1.00_128_1/block_15_project_BN_1/batchnorm/mul_1", "op": "Conv2D", "input": ["StatefulPartitionedCall/optimized_gesture_model_exp7_1/mobilenetv2_1.00_128_1/block_15_depthwise_relu_1/Relu6", "StatefulPartitionedCall/optimized_gesture_model_exp7_1/mobilenetv2_1.00_128_1/block_15_project_1/convolution/merged_input"], "device": "/device:CPU:0", "attr": {"padding": {"s": "U0FNRQ=="}, "data_format": {"s": "TkhXQw=="}, "strides": {"list": {"i": ["1", "1", "1", "1"]}}, "use_cudnn_on_gpu": {"b": true}, "T": {"type": "DT_FLOAT"}, "explicit_paddings": {"list": {}}, "dilations": {"list": {"i": ["1", "1", "1", "1"]}}}}, {"name": "StatefulPartitionedCall/optimized_gesture_model_exp7_1/mobilenetv2_1.00_128_1/block_15_add_1/ArithmeticOptimizer/AddOpsRewrite_Leaf_1_Add", "op": "AddN", "input": ["StatefulPartitionedCall/optimized_gesture_model_exp7_1/mobilenetv2_1.00_128_1/block_14_add_1/ArithmeticOptimizer/AddOpsRewrite_Add", "StatefulPartitionedCall/optimized_gesture_model_exp7_1/mobilenetv2_1.00_128_1/block_15_project_BN_1/batchnorm/mul_1"], "attr": {"N": {"i": "2"}, "T": {"type": "DT_FLOAT"}, "_grappler_ArithmeticOptimizer_AddOpsRewriteStage": {"b": true}}}, {"name": "StatefulPartitionedCall/optimized_gesture_model_exp7_1/mobilenetv2_1.00_128_1/block_15_add_1/ArithmeticOptimizer/AddOpsRewrite_Add", "op": "AddV2", "input": ["StatefulPartitionedCall/optimized_gesture_model_exp7_1/mobilenetv2_1.00_128_1/block_15_project_BN_1/batchnorm/sub", "StatefulPartitionedCall/optimized_gesture_model_exp7_1/mobilenetv2_1.00_128_1/block_15_add_1/ArithmeticOptimizer/AddOpsRewrite_Leaf_1_Add"], "attr": {"T": {"type": "DT_FLOAT"}, "_grappler_ArithmeticOptimizer_AddOpsRewriteStage": {"b": true}}}, {"name": "StatefulPartitionedCall/optimized_gesture_model_exp7_1/mobilenetv2_1.00_128_1/block_16_expand_relu_1/Relu6", "op": "_FusedConv2D", "input": ["StatefulPartitionedCall/optimized_gesture_model_exp7_1/mobilenetv2_1.00_128_1/block_15_add_1/ArithmeticOptimizer/AddOpsRewrite_Add", "StatefulPartitionedCall/optimized_gesture_model_exp7_1/mobilenetv2_1.00_128_1/block_16_expand_1/convolution/merged_input", "StatefulPartitionedCall/optimized_gesture_model_exp7_1/mobilenetv2_1.00_128_1/block_16_expand_BN_1/batchnorm/sub"], "device": "/device:CPU:0", "attr": {"num_host_args": {"i": "0"}, "data_format": {"s": "TkhXQw=="}, "filter_format": {"s": "SFdJTw=="}, "fused_ops": {"list": {"s": ["Qmlhc0FkZA==", "UmVsdTY="]}}, "num_args": {"i": "1"}, "strides": {"list": {"i": ["1", "1", "1", "1"]}}, "TArgs": {"list": {"type": ["DT_FLOAT"]}}, "padding": {"s": "U0FNRQ=="}, "use_cudnn_on_gpu": {"b": true}, "leakyrelu_alpha": {"f": 0.2}, "epsilon": {"f": 0.0}, "T": {"type": "DT_FLOAT"}, "explicit_paddings": {"list": {}}, "dilations": {"list": {"i": ["1", "1", "1", "1"]}}}}, {"name": "StatefulPartitionedCall/optimized_gesture_model_exp7_1/mobilenetv2_1.00_128_1/block_16_depthwise_1/depthwise", "op": "DepthwiseConv2dNative", "input": ["StatefulPartitionedCall/optimized_gesture_model_exp7_1/mobilenetv2_1.00_128_1/block_16_expand_relu_1/Relu6", "StatefulPartitionedCall/optimized_gesture_model_exp7_1/mobilenetv2_1.00_128_1/block_16_depthwise_1/depthwise/ReadVariableOp"], "attr": {"padding": {"s": "U0FNRQ=="}, "data_format": {"s": "TkhXQw=="}, "T": {"type": "DT_FLOAT"}, "explicit_paddings": {"list": {}}, "dilations": {"list": {"i": ["1", "1", "1", "1"]}}, "strides": {"list": {"i": ["1", "1", "1", "1"]}}}}, {"name": "StatefulPartitionedCall/optimized_gesture_model_exp7_1/mobilenetv2_1.00_128_1/block_16_depthwise_BN_1/batchnorm/mul_1", "op": "Mul", "input": ["StatefulPartitionedCall/optimized_gesture_model_exp7_1/mobilenetv2_1.00_128_1/block_16_depthwise_1/depthwise", "StatefulPartitionedCall/optimized_gesture_model_exp7_1/mobilenetv2_1.00_128_1/block_16_depthwise_BN_1/batchnorm/mul"], "attr": {"T": {"type": "DT_FLOAT"}}}, {"name": "StatefulPartitionedCall/optimized_gesture_model_exp7_1/mobilenetv2_1.00_128_1/block_16_depthwise_BN_1/batchnorm/add_1", "op": "AddV2", "input": ["StatefulPartitionedCall/optimized_gesture_model_exp7_1/mobilenetv2_1.00_128_1/block_16_depthwise_BN_1/batchnorm/mul_1", "StatefulPartitionedCall/optimized_gesture_model_exp7_1/mobilenetv2_1.00_128_1/block_16_depthwise_BN_1/batchnorm/sub"], "attr": {"T": {"type": "DT_FLOAT"}}}, {"name": "StatefulPartitionedCall/optimized_gesture_model_exp7_1/mobilenetv2_1.00_128_1/block_16_depthwise_relu_1/Relu6", "op": "Relu6", "input": ["StatefulPartitionedCall/optimized_gesture_model_exp7_1/mobilenetv2_1.00_128_1/block_16_depthwise_BN_1/batchnorm/add_1"], "attr": {"T": {"type": "DT_FLOAT"}}}, {"name": "StatefulPartitionedCall/optimized_gesture_model_exp7_1/mobilenetv2_1.00_128_1/block_16_project_BN_1/batchnorm/add_1", "op": "_FusedConv2D", "input": ["StatefulPartitionedCall/optimized_gesture_model_exp7_1/mobilenetv2_1.00_128_1/block_16_depthwise_relu_1/Relu6", "StatefulPartitionedCall/optimized_gesture_model_exp7_1/mobilenetv2_1.00_128_1/block_16_project_1/convolution/merged_input", "StatefulPartitionedCall/optimized_gesture_model_exp7_1/mobilenetv2_1.00_128_1/block_16_project_BN_1/batchnorm/sub"], "device": "/device:CPU:0", "attr": {"num_host_args": {"i": "0"}, "data_format": {"s": "TkhXQw=="}, "filter_format": {"s": "SFdJTw=="}, "strides": {"list": {"i": ["1", "1", "1", "1"]}}, "num_args": {"i": "1"}, "fused_ops": {"list": {"s": ["Qmlhc0FkZA=="]}}, "TArgs": {"list": {"type": ["DT_FLOAT"]}}, "padding": {"s": "U0FNRQ=="}, "use_cudnn_on_gpu": {"b": true}, "leakyrelu_alpha": {"f": 0.2}, "epsilon": {"f": 0.0}, "T": {"type": "DT_FLOAT"}, "explicit_paddings": {"list": {}}, "dilations": {"list": {"i": ["1", "1", "1", "1"]}}}}, {"name": "StatefulPartitionedCall/optimized_gesture_model_exp7_1/mobilenetv2_1.00_128_1/out_relu_1/Relu6", "op": "_FusedConv2D", "input": ["StatefulPartitionedCall/optimized_gesture_model_exp7_1/mobilenetv2_1.00_128_1/block_16_project_BN_1/batchnorm/add_1", "StatefulPartitionedCall/optimized_gesture_model_exp7_1/mobilenetv2_1.00_128_1/Conv_1_1/convolution/merged_input", "StatefulPartitionedCall/optimized_gesture_model_exp7_1/mobilenetv2_1.00_128_1/Conv_1_bn_1/batchnorm/sub"], "device": "/device:CPU:0", "attr": {"num_host_args": {"i": "0"}, "data_format": {"s": "TkhXQw=="}, "filter_format": {"s": "SFdJTw=="}, "fused_ops": {"list": {"s": ["Qmlhc0FkZA==", "UmVsdTY="]}}, "num_args": {"i": "1"}, "strides": {"list": {"i": ["1", "1", "1", "1"]}}, "TArgs": {"list": {"type": ["DT_FLOAT"]}}, "padding": {"s": "VkFMSUQ="}, "use_cudnn_on_gpu": {"b": true}, "leakyrelu_alpha": {"f": 0.2}, "epsilon": {"f": 0.0}, "T": {"type": "DT_FLOAT"}, "explicit_paddings": {"list": {}}, "dilations": {"list": {"i": ["1", "1", "1", "1"]}}}}, {"name": "StatefulPartitionedCall/optimized_gesture_model_exp7_1/global_avg_pooling_1/Mean", "op": "Mean", "input": ["StatefulPartitionedCall/optimized_gesture_model_exp7_1/mobilenetv2_1.00_128_1/out_relu_1/Relu6", "StatefulPartitionedCall/optimized_gesture_model_exp7_1/global_avg_pooling_1/Mean/reduction_indices"], "attr": {"T": {"type": "DT_FLOAT"}, "Tidx": {"type": "DT_INT32"}, "keep_dims": {"b": false}}}, {"name": "StatefulPartitionedCall/optimized_gesture_model_exp7_1/output_layer_1/BiasAdd", "op": "_FusedMatMul", "input": ["StatefulPartitionedCall/optimized_gesture_model_exp7_1/global_avg_pooling_1/Mean", "StatefulPartitionedCall/optimized_gesture_model_exp7_1/output_layer_1/Cast/ReadVariableOp", "StatefulPartitionedCall/optimized_gesture_model_exp7_1/output_layer_1/BiasAdd/ReadVariableOp"], "device": "/device:CPU:0", "attr": {"transpose_a": {"b": false}, "transpose_b": {"b": false}, "fused_ops": {"list": {"s": ["Qmlhc0FkZA=="]}}, "leakyrelu_alpha": {"f": 0.2}, "num_args": {"i": "1"}, "epsilon": {"f": 0.0}, "T": {"type": "DT_FLOAT"}}}, {"name": "StatefulPartitionedCall/optimized_gesture_model_exp7_1/output_layer_1/Softmax", "op": "Softmax", "input": ["StatefulPartitionedCall/optimized_gesture_model_exp7_1/output_layer_1/BiasAdd"], "attr": {"T": {"type": "DT_FLOAT"}}}, {"name": "Identity", "op": "Identity", "input": ["StatefulPartitionedCall/optimized_gesture_model_exp7_1/output_layer_1/Softmax"], "attr": {"T": {"type": "DT_FLOAT"}}}], "library": {}, "versions": {"producer": 1994}}, "weightsManifest": [{"paths": ["group1-shard1of3.bin", "group1-shard2of3.bin", "group1-shard3of3.bin"], "weights": [{"name": "StatefulPartitionedCall/optimized_gesture_model_exp7_1/mobilenetv2_1.00_128_1/block_15_project_BN_1/batchnorm/sub", "shape": [160], "dtype": "float32"}, {"name": "StatefulPartitionedCall/optimized_gesture_model_exp7_1/mobilenetv2_1.00_128_1/block_14_project_BN_1/batchnorm/sub", "shape": [160], "dtype": "float32"}, {"name": "StatefulPartitionedCall/optimized_gesture_model_exp7_1/mobilenetv2_1.00_128_1/block_12_project_BN_1/batchnorm/sub", "shape": [96], "dtype": "float32"}, {"name": "StatefulPartitionedCall/optimized_gesture_model_exp7_1/mobilenetv2_1.00_128_1/block_11_project_BN_1/batchnorm/sub", "shape": [96], "dtype": "float32"}, {"name": "StatefulPartitionedCall/optimized_gesture_model_exp7_1/mobilenetv2_1.00_128_1/block_9_project_BN_1/batchnorm/sub", "shape": [64], "dtype": "float32"}, {"name": "StatefulPartitionedCall/optimized_gesture_model_exp7_1/mobilenetv2_1.00_128_1/block_8_project_BN_1/batchnorm/sub", "shape": [64], "dtype": "float32"}, {"name": "StatefulPartitionedCall/optimized_gesture_model_exp7_1/mobilenetv2_1.00_128_1/block_7_project_BN_1/batchnorm/sub", "shape": [64], "dtype": "float32"}, {"name": "StatefulPartitionedCall/optimized_gesture_model_exp7_1/mobilenetv2_1.00_128_1/block_5_project_BN_1/batchnorm/sub", "shape": [32], "dtype": "float32"}, {"name": "StatefulPartitionedCall/optimized_gesture_model_exp7_1/mobilenetv2_1.00_128_1/block_4_project_BN_1/batchnorm/sub", "shape": [32], "dtype": "float32"}, {"name": "StatefulPartitionedCall/optimized_gesture_model_exp7_1/mobilenetv2_1.00_128_1/block_2_project_BN_1/batchnorm/sub", "shape": [24], "dtype": "float32"}, {"name": "StatefulPartitionedCall/optimized_gesture_model_exp7_1/mobilenetv2_1.00_128_1/Conv1_1/convolution/merged_input", "shape": [3, 3, 3, 32], "dtype": "float32"}, {"name": "StatefulPartitionedCall/optimized_gesture_model_exp7_1/mobilenetv2_1.00_128_1/bn_Conv1_1/batchnorm/sub", "shape": [32], "dtype": "float32"}, {"name": "StatefulPartitionedCall/optimized_gesture_model_exp7_1/mobilenetv2_1.00_128_1/expanded_conv_depthwise_1/depthwise/ReadVariableOp", "shape": [3, 3, 32, 1], "dtype": "float32"}, {"name": "StatefulPartitionedCall/optimized_gesture_model_exp7_1/mobilenetv2_1.00_128_1/expanded_conv_depthwise_BN_1/batchnorm/mul", "shape": [32], "dtype": "float32"}, {"name": "StatefulPartitionedCall/optimized_gesture_model_exp7_1/mobilenetv2_1.00_128_1/expanded_conv_depthwise_BN_1/batchnorm/sub", "shape": [32], "dtype": "float32"}, {"name": "StatefulPartitionedCall/optimized_gesture_model_exp7_1/mobilenetv2_1.00_128_1/expanded_conv_project_1/convolution/merged_input", "shape": [1, 1, 32, 16], "dtype": "float32"}, {"name": "StatefulPartitionedCall/optimized_gesture_model_exp7_1/mobilenetv2_1.00_128_1/expanded_conv_project_BN_1/batchnorm/sub", "shape": [16], "dtype": "float32"}, {"name": "StatefulPartitionedCall/optimized_gesture_model_exp7_1/mobilenetv2_1.00_128_1/block_1_expand_1/convolution/merged_input", "shape": [1, 1, 16, 96], "dtype": "float32"}, {"name": "StatefulPartitionedCall/optimized_gesture_model_exp7_1/mobilenetv2_1.00_128_1/block_1_expand_BN_1/batchnorm/sub", "shape": [96], "dtype": "float32"}, {"name": "StatefulPartitionedCall/optimized_gesture_model_exp7_1/mobilenetv2_1.00_128_1/block_1_pad_1/Const", "shape": [4, 2], "dtype": "int32"}, {"name": "StatefulPartitionedCall/optimized_gesture_model_exp7_1/mobilenetv2_1.00_128_1/block_1_depthwise_1/depthwise/ReadVariableOp", "shape": [3, 3, 96, 1], "dtype": "float32"}, {"name": "StatefulPartitionedCall/optimized_gesture_model_exp7_1/mobilenetv2_1.00_128_1/block_1_depthwise_BN_1/batchnorm/mul", "shape": [96], "dtype": "float32"}, {"name": "StatefulPartitionedCall/optimized_gesture_model_exp7_1/mobilenetv2_1.00_128_1/block_1_depthwise_BN_1/batchnorm/sub", "shape": [96], "dtype": "float32"}, {"name": "StatefulPartitionedCall/optimized_gesture_model_exp7_1/mobilenetv2_1.00_128_1/block_1_project_1/convolution/merged_input", "shape": [1, 1, 96, 24], "dtype": "float32"}, {"name": "StatefulPartitionedCall/optimized_gesture_model_exp7_1/mobilenetv2_1.00_128_1/block_1_project_BN_1/batchnorm/sub", "shape": [24], "dtype": "float32"}, {"name": "StatefulPartitionedCall/optimized_gesture_model_exp7_1/mobilenetv2_1.00_128_1/block_2_expand_1/convolution/merged_input", "shape": [1, 1, 24, 144], "dtype": "float32"}, {"name": "StatefulPartitionedCall/optimized_gesture_model_exp7_1/mobilenetv2_1.00_128_1/block_2_expand_BN_1/batchnorm/sub", "shape": [144], "dtype": "float32"}, {"name": "StatefulPartitionedCall/optimized_gesture_model_exp7_1/mobilenetv2_1.00_128_1/block_2_depthwise_1/depthwise/ReadVariableOp", "shape": [3, 3, 144, 1], "dtype": "float32"}, {"name": "StatefulPartitionedCall/optimized_gesture_model_exp7_1/mobilenetv2_1.00_128_1/block_2_depthwise_BN_1/batchnorm/mul", "shape": [144], "dtype": "float32"}, {"name": "StatefulPartitionedCall/optimized_gesture_model_exp7_1/mobilenetv2_1.00_128_1/block_2_depthwise_BN_1/batchnorm/sub", "shape": [144], "dtype": "float32"}, {"name": "StatefulPartitionedCall/optimized_gesture_model_exp7_1/mobilenetv2_1.00_128_1/block_2_project_1/convolution/merged_input", "shape": [1, 1, 144, 24], "dtype": "float32"}, {"name": "StatefulPartitionedCall/optimized_gesture_model_exp7_1/mobilenetv2_1.00_128_1/block_3_expand_1/convolution/merged_input", "shape": [1, 1, 24, 144], "dtype": "float32"}, {"name": "StatefulPartitionedCall/optimized_gesture_model_exp7_1/mobilenetv2_1.00_128_1/block_3_expand_BN_1/batchnorm/sub", "shape": [144], "dtype": "float32"}, {"name": "StatefulPartitionedCall/optimized_gesture_model_exp7_1/mobilenetv2_1.00_128_1/block_3_pad_1/Const", "shape": [4, 2], "dtype": "int32"}, {"name": "StatefulPartitionedCall/optimized_gesture_model_exp7_1/mobilenetv2_1.00_128_1/block_3_depthwise_1/depthwise/ReadVariableOp", "shape": [3, 3, 144, 1], "dtype": "float32"}, {"name": "StatefulPartitionedCall/optimized_gesture_model_exp7_1/mobilenetv2_1.00_128_1/block_3_depthwise_BN_1/batchnorm/mul", "shape": [144], "dtype": "float32"}, {"name": "StatefulPartitionedCall/optimized_gesture_model_exp7_1/mobilenetv2_1.00_128_1/block_3_depthwise_BN_1/batchnorm/sub", "shape": [144], "dtype": "float32"}, {"name": "StatefulPartitionedCall/optimized_gesture_model_exp7_1/mobilenetv2_1.00_128_1/block_3_project_1/convolution/merged_input", "shape": [1, 1, 144, 32], "dtype": "float32"}, {"name": "StatefulPartitionedCall/optimized_gesture_model_exp7_1/mobilenetv2_1.00_128_1/block_3_project_BN_1/batchnorm/sub", "shape": [32], "dtype": "float32"}, {"name": "StatefulPartitionedCall/optimized_gesture_model_exp7_1/mobilenetv2_1.00_128_1/block_4_expand_1/convolution/merged_input", "shape": [1, 1, 32, 192], "dtype": "float32"}, {"name": "StatefulPartitionedCall/optimized_gesture_model_exp7_1/mobilenetv2_1.00_128_1/block_4_expand_BN_1/batchnorm/sub", "shape": [192], "dtype": "float32"}, {"name": "StatefulPartitionedCall/optimized_gesture_model_exp7_1/mobilenetv2_1.00_128_1/block_4_depthwise_1/depthwise/ReadVariableOp", "shape": [3, 3, 192, 1], "dtype": "float32"}, {"name": "StatefulPartitionedCall/optimized_gesture_model_exp7_1/mobilenetv2_1.00_128_1/block_4_depthwise_BN_1/batchnorm/mul", "shape": [192], "dtype": "float32"}, {"name": "StatefulPartitionedCall/optimized_gesture_model_exp7_1/mobilenetv2_1.00_128_1/block_4_depthwise_BN_1/batchnorm/sub", "shape": [192], "dtype": "float32"}, {"name": "StatefulPartitionedCall/optimized_gesture_model_exp7_1/mobilenetv2_1.00_128_1/block_4_project_1/convolution/merged_input", "shape": [1, 1, 192, 32], "dtype": "float32"}, {"name": "StatefulPartitionedCall/optimized_gesture_model_exp7_1/mobilenetv2_1.00_128_1/block_5_expand_1/convolution/merged_input", "shape": [1, 1, 32, 192], "dtype": "float32"}, {"name": "StatefulPartitionedCall/optimized_gesture_model_exp7_1/mobilenetv2_1.00_128_1/block_5_expand_BN_1/batchnorm/sub", "shape": [192], "dtype": "float32"}, {"name": "StatefulPartitionedCall/optimized_gesture_model_exp7_1/mobilenetv2_1.00_128_1/block_5_depthwise_1/depthwise/ReadVariableOp", "shape": [3, 3, 192, 1], "dtype": "float32"}, {"name": "StatefulPartitionedCall/optimized_gesture_model_exp7_1/mobilenetv2_1.00_128_1/block_5_depthwise_BN_1/batchnorm/mul", "shape": [192], "dtype": "float32"}, {"name": "StatefulPartitionedCall/optimized_gesture_model_exp7_1/mobilenetv2_1.00_128_1/block_5_depthwise_BN_1/batchnorm/sub", "shape": [192], "dtype": "float32"}, {"name": "StatefulPartitionedCall/optimized_gesture_model_exp7_1/mobilenetv2_1.00_128_1/block_5_project_1/convolution/merged_input", "shape": [1, 1, 192, 32], "dtype": "float32"}, {"name": "StatefulPartitionedCall/optimized_gesture_model_exp7_1/mobilenetv2_1.00_128_1/block_6_expand_1/convolution/merged_input", "shape": [1, 1, 32, 192], "dtype": "float32"}, {"name": "StatefulPartitionedCall/optimized_gesture_model_exp7_1/mobilenetv2_1.00_128_1/block_6_expand_BN_1/batchnorm/sub", "shape": [192], "dtype": "float32"}, {"name": "StatefulPartitionedCall/optimized_gesture_model_exp7_1/mobilenetv2_1.00_128_1/block_6_pad_1/Const", "shape": [4, 2], "dtype": "int32"}, {"name": "StatefulPartitionedCall/optimized_gesture_model_exp7_1/mobilenetv2_1.00_128_1/block_6_depthwise_1/depthwise/ReadVariableOp", "shape": [3, 3, 192, 1], "dtype": "float32"}, {"name": "StatefulPartitionedCall/optimized_gesture_model_exp7_1/mobilenetv2_1.00_128_1/block_6_depthwise_BN_1/batchnorm/mul", "shape": [192], "dtype": "float32"}, {"name": "StatefulPartitionedCall/optimized_gesture_model_exp7_1/mobilenetv2_1.00_128_1/block_6_depthwise_BN_1/batchnorm/sub", "shape": [192], "dtype": "float32"}, {"name": "StatefulPartitionedCall/optimized_gesture_model_exp7_1/mobilenetv2_1.00_128_1/block_6_project_1/convolution/merged_input", "shape": [1, 1, 192, 64], "dtype": "float32"}, {"name": "StatefulPartitionedCall/optimized_gesture_model_exp7_1/mobilenetv2_1.00_128_1/block_6_project_BN_1/batchnorm/sub", "shape": [64], "dtype": "float32"}, {"name": "StatefulPartitionedCall/optimized_gesture_model_exp7_1/mobilenetv2_1.00_128_1/block_7_expand_1/convolution/merged_input", "shape": [1, 1, 64, 384], "dtype": "float32"}, {"name": "StatefulPartitionedCall/optimized_gesture_model_exp7_1/mobilenetv2_1.00_128_1/block_7_expand_BN_1/batchnorm/sub", "shape": [384], "dtype": "float32"}, {"name": "StatefulPartitionedCall/optimized_gesture_model_exp7_1/mobilenetv2_1.00_128_1/block_7_depthwise_1/depthwise/ReadVariableOp", "shape": [3, 3, 384, 1], "dtype": "float32"}, {"name": "StatefulPartitionedCall/optimized_gesture_model_exp7_1/mobilenetv2_1.00_128_1/block_7_depthwise_BN_1/batchnorm/mul", "shape": [384], "dtype": "float32"}, {"name": "StatefulPartitionedCall/optimized_gesture_model_exp7_1/mobilenetv2_1.00_128_1/block_7_depthwise_BN_1/batchnorm/sub", "shape": [384], "dtype": "float32"}, {"name": "StatefulPartitionedCall/optimized_gesture_model_exp7_1/mobilenetv2_1.00_128_1/block_7_project_1/convolution/merged_input", "shape": [1, 1, 384, 64], "dtype": "float32"}, {"name": "StatefulPartitionedCall/optimized_gesture_model_exp7_1/mobilenetv2_1.00_128_1/block_8_expand_1/convolution/merged_input", "shape": [1, 1, 64, 384], "dtype": "float32"}, {"name": "StatefulPartitionedCall/optimized_gesture_model_exp7_1/mobilenetv2_1.00_128_1/block_8_expand_BN_1/batchnorm/sub", "shape": [384], "dtype": "float32"}, {"name": "StatefulPartitionedCall/optimized_gesture_model_exp7_1/mobilenetv2_1.00_128_1/block_8_depthwise_1/depthwise/ReadVariableOp", "shape": [3, 3, 384, 1], "dtype": "float32"}, {"name": "StatefulPartitionedCall/optimized_gesture_model_exp7_1/mobilenetv2_1.00_128_1/block_8_depthwise_BN_1/batchnorm/mul", "shape": [384], "dtype": "float32"}, {"name": "StatefulPartitionedCall/optimized_gesture_model_exp7_1/mobilenetv2_1.00_128_1/block_8_depthwise_BN_1/batchnorm/sub", "shape": [384], "dtype": "float32"}, {"name": "StatefulPartitionedCall/optimized_gesture_model_exp7_1/mobilenetv2_1.00_128_1/block_8_project_1/convolution/merged_input", "shape": [1, 1, 384, 64], "dtype": "float32"}, {"name": "StatefulPartitionedCall/optimized_gesture_model_exp7_1/mobilenetv2_1.00_128_1/block_9_expand_1/convolution/merged_input", "shape": [1, 1, 64, 384], "dtype": "float32"}, {"name": "StatefulPartitionedCall/optimized_gesture_model_exp7_1/mobilenetv2_1.00_128_1/block_9_expand_BN_1/batchnorm/sub", "shape": [384], "dtype": "float32"}, {"name": "StatefulPartitionedCall/optimized_gesture_model_exp7_1/mobilenetv2_1.00_128_1/block_9_depthwise_1/depthwise/ReadVariableOp", "shape": [3, 3, 384, 1], "dtype": "float32"}, {"name": "StatefulPartitionedCall/optimized_gesture_model_exp7_1/mobilenetv2_1.00_128_1/block_9_depthwise_BN_1/batchnorm/mul", "shape": [384], "dtype": "float32"}, {"name": "StatefulPartitionedCall/optimized_gesture_model_exp7_1/mobilenetv2_1.00_128_1/block_9_depthwise_BN_1/batchnorm/sub", "shape": [384], "dtype": "float32"}, {"name": "StatefulPartitionedCall/optimized_gesture_model_exp7_1/mobilenetv2_1.00_128_1/block_9_project_1/convolution/merged_input", "shape": [1, 1, 384, 64], "dtype": "float32"}, {"name": "StatefulPartitionedCall/optimized_gesture_model_exp7_1/mobilenetv2_1.00_128_1/block_10_expand_1/convolution/merged_input", "shape": [1, 1, 64, 384], "dtype": "float32"}, {"name": "StatefulPartitionedCall/optimized_gesture_model_exp7_1/mobilenetv2_1.00_128_1/block_10_expand_BN_1/batchnorm/sub", "shape": [384], "dtype": "float32"}, {"name": "StatefulPartitionedCall/optimized_gesture_model_exp7_1/mobilenetv2_1.00_128_1/block_10_depthwise_1/depthwise/ReadVariableOp", "shape": [3, 3, 384, 1], "dtype": "float32"}, {"name": "StatefulPartitionedCall/optimized_gesture_model_exp7_1/mobilenetv2_1.00_128_1/block_10_depthwise_BN_1/batchnorm/mul", "shape": [384], "dtype": "float32"}, {"name": "StatefulPartitionedCall/optimized_gesture_model_exp7_1/mobilenetv2_1.00_128_1/block_10_depthwise_BN_1/batchnorm/sub", "shape": [384], "dtype": "float32"}, {"name": "StatefulPartitionedCall/optimized_gesture_model_exp7_1/mobilenetv2_1.00_128_1/block_10_project_1/convolution/merged_input", "shape": [1, 1, 384, 96], "dtype": "float32"}, {"name": "StatefulPartitionedCall/optimized_gesture_model_exp7_1/mobilenetv2_1.00_128_1/block_10_project_BN_1/batchnorm/sub", "shape": [96], "dtype": "float32"}, {"name": "StatefulPartitionedCall/optimized_gesture_model_exp7_1/mobilenetv2_1.00_128_1/block_11_expand_1/convolution/merged_input", "shape": [1, 1, 96, 576], "dtype": "float32"}, {"name": "StatefulPartitionedCall/optimized_gesture_model_exp7_1/mobilenetv2_1.00_128_1/block_11_expand_BN_1/batchnorm/sub", "shape": [576], "dtype": "float32"}, {"name": "StatefulPartitionedCall/optimized_gesture_model_exp7_1/mobilenetv2_1.00_128_1/block_11_depthwise_1/depthwise/ReadVariableOp", "shape": [3, 3, 576, 1], "dtype": "float32"}, {"name": "StatefulPartitionedCall/optimized_gesture_model_exp7_1/mobilenetv2_1.00_128_1/block_11_depthwise_BN_1/batchnorm/mul", "shape": [576], "dtype": "float32"}, {"name": "StatefulPartitionedCall/optimized_gesture_model_exp7_1/mobilenetv2_1.00_128_1/block_11_depthwise_BN_1/batchnorm/sub", "shape": [576], "dtype": "float32"}, {"name": "StatefulPartitionedCall/optimized_gesture_model_exp7_1/mobilenetv2_1.00_128_1/block_11_project_1/convolution/merged_input", "shape": [1, 1, 576, 96], "dtype": "float32"}, {"name": "StatefulPartitionedCall/optimized_gesture_model_exp7_1/mobilenetv2_1.00_128_1/block_12_expand_1/convolution/merged_input", "shape": [1, 1, 96, 576], "dtype": "float32"}, {"name": "StatefulPartitionedCall/optimized_gesture_model_exp7_1/mobilenetv2_1.00_128_1/block_12_expand_BN_1/batchnorm/sub", "shape": [576], "dtype": "float32"}, {"name": "StatefulPartitionedCall/optimized_gesture_model_exp7_1/mobilenetv2_1.00_128_1/block_12_depthwise_1/depthwise/ReadVariableOp", "shape": [3, 3, 576, 1], "dtype": "float32"}, {"name": "StatefulPartitionedCall/optimized_gesture_model_exp7_1/mobilenetv2_1.00_128_1/block_12_depthwise_BN_1/batchnorm/mul", "shape": [576], "dtype": "float32"}, {"name": "StatefulPartitionedCall/optimized_gesture_model_exp7_1/mobilenetv2_1.00_128_1/block_12_depthwise_BN_1/batchnorm/sub", "shape": [576], "dtype": "float32"}, {"name": "StatefulPartitionedCall/optimized_gesture_model_exp7_1/mobilenetv2_1.00_128_1/block_12_project_1/convolution/merged_input", "shape": [1, 1, 576, 96], "dtype": "float32"}, {"name": "StatefulPartitionedCall/optimized_gesture_model_exp7_1/mobilenetv2_1.00_128_1/block_13_expand_1/convolution/merged_input", "shape": [1, 1, 96, 576], "dtype": "float32"}, {"name": "StatefulPartitionedCall/optimized_gesture_model_exp7_1/mobilenetv2_1.00_128_1/block_13_expand_BN_1/batchnorm/sub", "shape": [576], "dtype": "float32"}, {"name": "StatefulPartitionedCall/optimized_gesture_model_exp7_1/mobilenetv2_1.00_128_1/block_13_pad_1/Const", "shape": [4, 2], "dtype": "int32"}, {"name": "StatefulPartitionedCall/optimized_gesture_model_exp7_1/mobilenetv2_1.00_128_1/block_13_depthwise_1/depthwise/ReadVariableOp", "shape": [3, 3, 576, 1], "dtype": "float32"}, {"name": "StatefulPartitionedCall/optimized_gesture_model_exp7_1/mobilenetv2_1.00_128_1/block_13_depthwise_BN_1/batchnorm/mul", "shape": [576], "dtype": "float32"}, {"name": "StatefulPartitionedCall/optimized_gesture_model_exp7_1/mobilenetv2_1.00_128_1/block_13_depthwise_BN_1/batchnorm/sub", "shape": [576], "dtype": "float32"}, {"name": "StatefulPartitionedCall/optimized_gesture_model_exp7_1/mobilenetv2_1.00_128_1/block_13_project_1/convolution/merged_input", "shape": [1, 1, 576, 160], "dtype": "float32"}, {"name": "StatefulPartitionedCall/optimized_gesture_model_exp7_1/mobilenetv2_1.00_128_1/block_13_project_BN_1/batchnorm/sub", "shape": [160], "dtype": "float32"}, {"name": "StatefulPartitionedCall/optimized_gesture_model_exp7_1/mobilenetv2_1.00_128_1/block_14_expand_1/convolution/merged_input", "shape": [1, 1, 160, 960], "dtype": "float32"}, {"name": "StatefulPartitionedCall/optimized_gesture_model_exp7_1/mobilenetv2_1.00_128_1/block_14_expand_BN_1/batchnorm/sub", "shape": [960], "dtype": "float32"}, {"name": "StatefulPartitionedCall/optimized_gesture_model_exp7_1/mobilenetv2_1.00_128_1/block_14_depthwise_1/depthwise/ReadVariableOp", "shape": [3, 3, 960, 1], "dtype": "float32"}, {"name": "StatefulPartitionedCall/optimized_gesture_model_exp7_1/mobilenetv2_1.00_128_1/block_14_depthwise_BN_1/batchnorm/mul", "shape": [960], "dtype": "float32"}, {"name": "StatefulPartitionedCall/optimized_gesture_model_exp7_1/mobilenetv2_1.00_128_1/block_14_depthwise_BN_1/batchnorm/sub", "shape": [960], "dtype": "float32"}, {"name": "StatefulPartitionedCall/optimized_gesture_model_exp7_1/mobilenetv2_1.00_128_1/block_14_project_1/convolution/merged_input", "shape": [1, 1, 960, 160], "dtype": "float32"}, {"name": "StatefulPartitionedCall/optimized_gesture_model_exp7_1/mobilenetv2_1.00_128_1/block_15_expand_1/convolution/merged_input", "shape": [1, 1, 160, 960], "dtype": "float32"}, {"name": "StatefulPartitionedCall/optimized_gesture_model_exp7_1/mobilenetv2_1.00_128_1/block_15_expand_BN_1/batchnorm/sub", "shape": [960], "dtype": "float32"}, {"name": "StatefulPartitionedCall/optimized_gesture_model_exp7_1/mobilenetv2_1.00_128_1/block_15_depthwise_1/depthwise/ReadVariableOp", "shape": [3, 3, 960, 1], "dtype": "float32"}, {"name": "StatefulPartitionedCall/optimized_gesture_model_exp7_1/mobilenetv2_1.00_128_1/block_15_depthwise_BN_1/batchnorm/mul", "shape": [960], "dtype": "float32"}, {"name": "StatefulPartitionedCall/optimized_gesture_model_exp7_1/mobilenetv2_1.00_128_1/block_15_depthwise_BN_1/batchnorm/sub", "shape": [960], "dtype": "float32"}, {"name": "StatefulPartitionedCall/optimized_gesture_model_exp7_1/mobilenetv2_1.00_128_1/block_15_project_1/convolution/merged_input", "shape": [1, 1, 960, 160], "dtype": "float32"}, {"name": "StatefulPartitionedCall/optimized_gesture_model_exp7_1/mobilenetv2_1.00_128_1/block_16_expand_1/convolution/merged_input", "shape": [1, 1, 160, 960], "dtype": "float32"}, {"name": "StatefulPartitionedCall/optimized_gesture_model_exp7_1/mobilenetv2_1.00_128_1/block_16_expand_BN_1/batchnorm/sub", "shape": [960], "dtype": "float32"}, {"name": "StatefulPartitionedCall/optimized_gesture_model_exp7_1/mobilenetv2_1.00_128_1/block_16_depthwise_1/depthwise/ReadVariableOp", "shape": [3, 3, 960, 1], "dtype": "float32"}, {"name": "StatefulPartitionedCall/optimized_gesture_model_exp7_1/mobilenetv2_1.00_128_1/block_16_depthwise_BN_1/batchnorm/mul", "shape": [960], "dtype": "float32"}, {"name": "StatefulPartitionedCall/optimized_gesture_model_exp7_1/mobilenetv2_1.00_128_1/block_16_depthwise_BN_1/batchnorm/sub", "shape": [960], "dtype": "float32"}, {"name": "StatefulPartitionedCall/optimized_gesture_model_exp7_1/mobilenetv2_1.00_128_1/block_16_project_1/convolution/merged_input", "shape": [1, 1, 960, 320], "dtype": "float32"}, {"name": "StatefulPartitionedCall/optimized_gesture_model_exp7_1/mobilenetv2_1.00_128_1/block_16_project_BN_1/batchnorm/sub", "shape": [320], "dtype": "float32"}, {"name": "StatefulPartitionedCall/optimized_gesture_model_exp7_1/mobilenetv2_1.00_128_1/Conv_1_1/convolution/merged_input", "shape": [1, 1, 320, 1280], "dtype": "float32"}, {"name": "StatefulPartitionedCall/optimized_gesture_model_exp7_1/mobilenetv2_1.00_128_1/Conv_1_bn_1/batchnorm/sub", "shape": [1280], "dtype": "float32"}, {"name": "StatefulPartitionedCall/optimized_gesture_model_exp7_1/global_avg_pooling_1/Mean/reduction_indices", "shape": [2], "dtype": "int32"}, {"name": "StatefulPartitionedCall/optimized_gesture_model_exp7_1/output_layer_1/Cast/ReadVariableOp", "shape": [1280, 5], "dtype": "float32"}, {"name": "StatefulPartitionedCall/optimized_gesture_model_exp7_1/output_layer_1/BiasAdd/ReadVariableOp", "shape": [5], "dtype": "float32"}]}]}